inc/model.tflite (tflite, 324748 bytes, 28 tensors)

dense_4/bias f4 [32]
00000000: 0fd2 0b3c 556c 73bc 785b bcbb 9bfa f4bc
00000010: 1622 493a a26a a1bb 4b60 843c 913a 64bd
00000020: 0228 573c 2e0d 903c 28fe 9b3a 9a11 433d
00000030: 910c 003c 0803 53bc 68db 0dbc 6977 04bd
00000040: 5b23 41bc 5daf 0c3c 5f98 893c 6ff1 1b3b
00000050: a614 363c 3048 cd3c d52f acbc 23be 68bc
00000060: 8622 2fbb 6f1c d83c 7a55 19bc b7da 0abd
00000070: 54ab c23d d48a a23c 71e8 8c3c 0fac 223d
0.008533969 -0.014857371 -0.0057482086 -0.029904654 0.00076726207 -0.0049260417 0.016159197 -0.055719916
0.013132097 0.01758441 0.0011901306 0.047624208 0.007815496 -0.012879141 -0.008658268 -0.03234044
-0.011788215 0.008586732 0.016796289 0.0023795029 0.011113321 0.025058836 -0.021018902 -0.014205488
-0.0026723458 0.026380746 -0.009358758 -0.03389999 0.095053345 0.019841589 0.01720068 0.03971487

conv2d_17/bias f4 [16]
00000000: f851 0e3c 8bcb 3ebc 361c 0f3d 475d 2a3a
00000010: 3ad8 e23b 96df c6bb f42c 07bb c128 fb3b
00000020: f7fa e1bb 733d a2bb 61e4 29bc 649a 863b
00000030: 41af 253b 6c9f 46bc 0160 923b 2268 aa3a
0.008686535 -0.011645208 0.034939013 0.0006498885 0.006922749 -0.006069134 -0.002062616 0.0076647704
-0.0068963724 -0.004951173 -0.010369391 0.0041077603 0.0025281461 -0.01212297 0.004467011 0.0013001005

conv2d_16/bias f4 [16]
00000000: 40e4 88bc c9fb dfbb 6321 8ebc e2a2 6f3b
00000010: 2b50 82bc 7a51 043b 227f efbb cb44 95bc
00000020: af6a 543c 84e8 613c df13 4dbb 500b 93bc
00000030: f317 c8bc 270d 4ebc b900 bd3b 6cf9 973c
-0.0167104 -0.006835435 -0.017349904 0.0036565592 -0.015907368 0.0020190165 -0.0073088566 -0.01822128
0.0129648885 0.013788346 -0.0031292362 -0.01794973 -0.024425482 -0.012576378 0.0057679084 0.01855155

conv2d_15/bias f4 [16]
00000000: 0767 f9bc 5c7f 013d 63fb 8d3c 24db 1abd
00000010: 4d44 53bd 17c4 2abc 6e75 0bbd 9ce1 bdbc
00000020: 3101 473b f1f3 cb3c d69c 28bc b493 0cbd
00000030: 4016 f6bc 0d20 273c 6a85 0bbd ea21 86ba
-0.030444635 0.0316156 0.017331785 -0.037806645 -0.05157881 -0.010422728 -0.034047537 -0.023178868
0.00303657 0.024896594 -0.010291299 -0.03432055 -0.030039907 0.010200513 -0.03406278 -0.0010233496

conv2d_14/bias f4 [16]
00000000: 4672 e6bc c05f 10bc e452 23bd 93f0 eebc
00000010: 096a 52bc c0f8 b4bc 0ebf b43c bd95 93bc
00000020: 57f8 84bc 2a59 28bd ba60 ccbc 8f87 8ebc
00000030: 1852 f5bc 6be5 993b 6889 1e3b 6cd0 003b
-0.028130662 -0.008811891 -0.039873973 -0.02916745 -0.012842664 -0.02209127 0.022063758 -0.018015737
-0.016231699 -0.04110066 -0.024948467 -0.017398624 -0.029946372 0.004696538 0.0024190787 0.001965548

conv2d_13/bias f4 [16]
00000000: b728 54bb eb35 173b 1131 86bc 37c1 dabc
00000010: 9f57 603c 03ca b5bc fba3 7c3a 4e02 54bc
00000020: 2902 43b9 ce01 fc3b c8e7 7a3d 1b01 9aba
00000030: 52f3 63bc 2d08 f9bc 352c f6bb 3ed7 7dbb
-0.00323729 0.002307291 -0.016380819 -0.02670346 0.0136927655 -0.022191053 0.0009637472 -0.012940003
-0.00018597454 0.007690645 0.0612562 -0.0011749597 -0.013912993 -0.030399406 -0.007512594 -0.003873303

conv2d_12/bias f4 [16]
00000000: 6d01 d3bc 31b7 b9bb 72d8 ce3c 38e5 f0bb
00000010: 0601 babc 17b3 a13c 261c f23c 22c9 46bc
00000020: bc24 0bbc a131 253c bcf6 01bc 42c2 29bb
00000030: c67f f83c 8353 803c d71f c33c 69b7 173d
-0.025757516 -0.00566759 0.025249694 -0.0073515438 -0.022705566 0.019738717 0.029554438 -0.012132915
-0.008492645 0.010082633 -0.007932361 -0.002590314 0.030334365 0.015664821 0.023818893 0.037040148

hal_net_2/sequential_10/gru_8/gru_cell_8/unstack f4 [24]
00000000: e4b2 9e3c ce1f c13c cdde 733b b320 a83b
00000010: 9adf 1a3a 5afa 25bd d5ec c23c 4bea d1bb
00000020: b04c 303c 6778 ffba b3e2 683d dae1 da3d
00000030: 1a36 4fbc e086 6d3d bbd4 abbc 88a9 383d
00000040: 8921 24bc 9c5c a8bb af72 f43c 774a 3d3d
00000050: 3fe3 e8ba 95c3 d9bc 1531 83ba ce70 ee3c
0.019372411 0.023574736 0.0037211657 0.005130851 0.0005907953 -0.040521957 0.023794571 -0.0064061037
0.010760471 -0.0019490839 0.056856822 0.10687609 -0.012647176 0.057989955 -0.020975461 0.045083553
-0.010017761 -0.005137993 0.029839842 0.046213593 -0.001776792 -0.026582519 -0.0010009134 0.029106524

hal_net_2/sequential_10/gru_8/gru_cell_8/unstack1 f4 [24]
00000000: e5b2 9e3c cc1f c13c d1de 733b ae20 a83b
00000010: badf 1a3a 59fa 25bd d6ec c23c 4eea d1bb
00000020: ac4c 303c 5b78 ffba b3e2 683d dae1 da3d
00000030: 1a36 4fbc e186 6d3d bad4 abbc 87a9 383d
00000040: 51cf aebb 9d4c c3ba 6fbf ce3c f73e 343d
00000050: f69a 203a 8ea6 6dbc 1127 b439 37a4 c73c
0.019372413 0.023574732 0.0037211666 0.005130849 0.00059079716 -0.040521953 0.023794573 -0.006406105
0.0107604675 -0.0019490825 0.056856822 0.10687609 -0.012647176 0.05798996 -0.02097546 0.04508355
-0.0053347726 -0.0014900152 0.025237767 0.04400536 0.00061266066 -0.014505042 0.00034361382 0.024370296

hal_net_2/sequential_8/gru_6/gru_cell_6/unstack f4 [24]
00000000: a07a bd3c b336 0fbd 5ea4 40bc 7ab9 1ebc
00000010: 0852 933c 17e7 f33c 9cf1 f5bb 3eb8 49bc
00000020: 64a8 b3bb b8b4 843d 484d 483d 89b8 ee3c
00000030: 1f89 263c fdf0 95bc 4e4d 1dbc 9576 893d
00000040: 093d a43b dbce 06bd b424 0abd 2935 023d
00000050: cea1 39bc ed21 f4bb a5d3 5c3b 5eeb 13bd
0.023129761 -0.034964275 -0.011757938 -0.009687776 0.017983451 0.029773278 -0.0075056087 -0.012311993
-0.00548272 0.06479782 0.048901826 0.029140728 0.010164528 -0.018303389 -0.00960095 0.06712071
0.005012159 -0.032912116 -0.03372641 0.03178898 -0.011330081 -0.0074503333 0.0033695486 -0.036113136

hal_net_2/sequential_8/gru_6/gru_cell_6/unstack1 f4 [24]
00000000: 9d7a bd3c b136 0fbd 61a4 40bc 76b9 1ebc
00000010: 0752 933c 15e7 f33c 96f1 f5bb 42b8 49bc
00000020: 68a8 b3bb b7b4 843d 4a4d 483d 87b8 ee3c
00000030: 2289 263c fef0 95bc 4e4d 1dbc 9676 893d
00000040: 3ba4 6e3b 211c d7bc c348 debc ceba a43c
00000050: bb41 17bc 913a 9abb 46ea 9d3b 97c6 e2bc
0.023129756 -0.034964267 -0.011757941 -0.009687772 0.01798345 0.029773274 -0.007505606 -0.012311997
-0.005482722 0.06479781 0.048901834 0.029140724 0.010164531 -0.01830339 -0.00960095 0.067120716
0.0036413807 -0.02625853 -0.027134305 0.020108607 -0.00923198 -0.0047066887 0.0048191873 -0.027682586

hal_net_2/sequential_9/gru_7/gru_cell_7/unstack f4 [24]
00000000: 5022 d63c 5459 d5b9 5a4b 65bd 361c 35bd
00000010: 8af3 ba3b 51a2 08bd 9be5 a63b b062 db3b
00000020: 1c88 853d a2fb 8f3d 5b13 dfbc 1057 af3d
00000030: f104 be3c 0341 e1ba 9700 923d 2e62 c43c
00000040: c19d 60bd c207 1a3d cd88 383c e5cb 923d
00000050: 71f5 b8bc e84e b5bc e4c1 22bd 5f8d 9bbc
0.026139408 -0.0004069308 -0.055980064 -0.044216357 0.0057053016 -0.033357922 0.005093289 0.006695114
0.065201014 0.07030417 -0.02723091 0.08561528 0.023195716 -0.0017185513 0.07129019 0.023972597
-0.054837946 0.037605055 0.011263085 0.07167796 -0.022577973 -0.022132352 -0.03973569 -0.01898831

hal_net_2/sequential_9/gru_7/gru_cell_7/unstack1 f4 [24]
00000000: 5122 d63c 3559 d5b9 574b 65bd 351c 35bd
00000010: 8ff3 ba3b 54a2 08bd 9ce5 a63b ae62 db3b
00000020: 1c88 853d a2fb 8f3d 5b13 dfbc 1157 af3d
00000030: f204 be3c d340 e1ba 9600 923d 2d62 c43c
00000040: c5dd 3cbd abb3 d33c 0b33 a2bc 2d03 003d
00000050: ce3e b3bc 96aa 68bc e795 acbc c6cf 57bc
0.02613941 -0.0004069299 -0.055980053 -0.044216353 0.005705304 -0.033357933 0.0050932895 0.006695113
0.065201014 0.07030417 -0.02723091 0.085615285 0.023195717 -0.0017185457 0.07129018 0.023972595
-0.046109933 0.025842508 -0.01979973 0.03125303 -0.021880534 -0.014200827 -0.021067573 -0.013172096

hal_net_2/sequential_10/gru_8/gru_cell_8/MatMul_1 f4 [24, 8]
00000000: 80a0 42be afab 16be 1708 14bb fb9a 533e
00000010: 8d90 1cbe 28a3 4abd 2654 233d 17b9 ab3a
00000020: fbf7 fb3d 6061 e1bd cd56 d7bd 9901 953e
00000030: 63a0 f9bd e628 88be 219a 6b3e eb96 763e
00000040: f858 cd3e bc54 273c 6def 8a3e 4fd1 e93d
00000050: 9594 d33d 0414 ab3c ffea acbe 373e 0c3c
00000060: 9f96 143e 7ef0 133e 215a 6dbe 8b9e 233e
00000070: 237e 4b3d fb5c 463e bce9 4cbc 2459 7c3b
00000080: 5f55 5f3e 59e3 bfbd 0ce2 7fbe 7721 5fbd
00000090: 9156 753d 164c f7be 34d0 903e bd5b 2abd
000000a0: 9238 2ebe 18cf 89be fe38 b83d e284 233c
000000b0: 22ec 343e a449 323d 6b84 10be e3ff b1be
000000c0: 24fd e53b ff9c 80be 7b90 593d ddd0 45be
000000d0: 4eb7 a039 5bf2 463e cd50 f73d af19 54be
000000e0: 60e6 dabe c03a 92be 8123 49bd 2c63 49be
000000f0: 1211 e83d 3cef cdbd b278 803e 1f17 b53d
00000100: 9b3c 06be 8bd5 da3d 6b63 af3e e899 3bbb
00000110: 2766 0cbf 57e8 c3bd ab08 2a3d 8d0d 23b9
00000120: 2d5a 48bd de0d a1bc 5a75 c53e f16a 5abe
00000130: 0222 cf3d 0f08 33be 5055 163c cc3f 2ebd
00000140: b877 0ebe 01f6 2d3d c5dc 5ebe 0744 933e
00000150: d12e ab3e d58c 2ebe 48f4 0bbe a818 a7be
00000160: eb86 ad3e a4b6 0ebe b498 6fbe 9aec 1a3e
00000170: b467 9ebe 18b3 3bbd ff53 ebbd a33f 873d
00000180: b7e5 e33e e799 e2bd dab3 863e c7cd 453e
00000190: 0b2b 853e ec57 473e 5f79 e43e 7508 3cbe
000001a0: e816 b8bd 97f0 95be 2ee2 20bd 28ce b33d
000001b0: b878 843e 888a 86be 7913 4abe 75ee 603e
000001c0: 2f5b 2abe 9638 cdbc 5aff 293e 282a ff3e
000001d0: e6a9 93bd 8811 56be 6d53 3c3e 1596 683d
000001e0: 8b5d 993d ab8a c43e ab33 c8bd d6ec 90be
000001f0: b7da 7c3e 61d4 2cbd fa59 a33d 3039 e03e
00000200: cc07 7bbd 3dd4 afbd e30f f0bd 1115 b63d
00000210: 27d0 46be 4bff 8d3e 2b3c c33c 8511 07bd
00000220: bf48 213e 57e6 d9bc 1163 543b 658e aebe
00000230: c8d2 48be 9a3f 12be 02aa b93e b2cb 85be
00000240: d26d 403e 9bfa 97be a3cb 3d3e 8d8a 09be
00000250: 0a14 1c3e 8c73 dabd a052 09be d908 ea3b
00000260: 553b 093e cf28 34be def3 ebbe 7eae 3cbe
00000270: 073e 1dbe ccef 66bd e62e b0bd e1d2 76be
00000280: 83cf a23d 1008 99be 9184 b0bc d4b9 2dbe
00000290: 68d6 3abe c59f 03bb cea0 afbe fc80 213e
000002a0: bf62 a63d feb3 11be 2245 533d 51eb 08be
000002b0: df36 be3d d197 cabd bf66 523d c346 9a3e
000002c0: 5a5b a03d 1397 993e a381 153e 94a3 71bd
000002d0: 7669 adbd 0cbe 02bf b580 7fbe 5bbc a1be
000002e0: 6c24 ec3d 4c98 acbe 3552 213e 9382 823d
000002f0: b52b c9bd f6bb bcbb c085 2fbd 992e 423e
-0.19006538 -0.1471393 -0.002258783 0.20664589 -0.15289517 -0.049472004 0.039875172 0.0013101426
0.12303158 -0.11004901 -0.10514603 0.2910278 -0.121887945 -0.26593703 0.23008014 0.24081008
0.4010694 0.010213073 0.27135792 0.114168756 0.10331074 0.020883568 -0.33773038 0.008559755
0.14510582 0.14447209 -0.23178913 0.15978448 0.04968084 0.19371407 -0.0125068985 0.003850528
0.2180991 -0.09369535 -0.24988574 -0.054475274 0.05989701 -0.48300236 0.28283846 -0.041591395
-0.17013767 -0.26915812 0.089952454 0.009980412 0.17668203 0.04352726 -0.14113013 -0.3476554
0.007018702 -0.2511978 0.053116303 -0.19317956 0.0003065415 0.19428389 0.120759584 -0.20712923
-0.42753887 -0.28560448 -0.049106125 -0.19666737 0.11331381 -0.10055396 0.25092083 0.088423006
-0.13109057 0.10685261 0.34255537 -0.002862567 -0.5484337 -0.095658 0.041512173 -0.0001554994
-0.048914123 -0.019659933 0.38566095 -0.21329857 0.10113908 -0.17483543 0.0091756135 -0.04254131
-0.13912857 0.042470936 -0.21763904 0.28762838 0.33434156 -0.1704591 -0.13667405 -0.32636
0.33891997 -0.1393686 -0.23398095 0.15129319 -0.30938494 -0.045825094 -0.1149063 0.066039346
0.44511196 -0.11064511 0.2630909 0.19316779 0.26009402 0.19467133 0.4462385 -0.18362601
-0.08988744 -0.29285118 -0.0392782 0.087795556 0.2587335 -0.26277566 -0.1973399 0.21965964
-0.16636346 -0.025051396 0.16601315 0.4983685 -0.0721014 -0.20905125 0.183912 0.056783754
0.07488545 0.38387045 -0.0977548 -0.2830569 0.24692808 -0.042194728 0.07976146 0.4379363
-0.061286733 -0.08585403 -0.1172178 0.08890737 -0.19415341 0.27733836 0.023832401 -0.032975692
0.15750407 -0.026599092 0.003240768 -0.34093013 -0.19611657 -0.14282075 0.36262518 -0.2613197
0.18791893 -0.29683384 0.18534712 -0.13431759 0.1524202 -0.1066657 -0.13410425 0.007142168
0.1340154 -0.17593692 -0.46084493 -0.18425938 -0.15355693 -0.056381032 -0.08602695 -0.24103881
0.07949736 -0.29888964 -0.021547588 -0.16965419 -0.18245852 -0.0020084244 -0.34302372 0.1577186
0.08124303 -0.14228818 0.051579602 -0.13371016 0.092878096 -0.09892238 0.051367518 0.30132112
0.07829924 0.29998073 0.14600234 -0.05899389 -0.08467381 -0.5107124 -0.24951442 -0.31589016
0.115303844 -0.33709943 0.15754016 0.06372561 -0.098227896 -0.0057597114 -0.042852163 0.18963088

hal_net_2/sequential_10/gru_8/gru_cell_8/MatMul f4 [24, 864]
00000000: b998 513d 7cd6 3a3c df7f 7c3c cf3e c2bc
00000010: 63fb c63c 593b 0abd 8d0e 613c 248a 083d
00000020: 8684 343c 808c 56bd 48f0 9f3c 3d7a adbc
00000030: 966a 2bbd 096b 8fbd 71a4 393d 60f3 483c
00000040: d213 a43d 731d 693d 69d1 da3c f085 e73c
00000050: afbf 36bd 1412 86bd 7cb3 55bd 238e 54bd
00000060: 5765 b13d d7d3 7c3d 07e6 66bd 6efe 7bbd
00000070: 6881 143d 7e91 8abd e812 643d 0dd5 3ebd
00000080: d71c 173d 8df8 3cbc dd60 a43d 18ed 55bd
00000090: 3fa2 06bd a04b 45bd 5af4 033d 5546 613c
000000a0: 32fb 5dbd 317a 8c3c 4b57 12bd c10e f13c
000000b0: e389 e7bc 5e16 6a3d daad 85bd beff 3dbc
000000c0: befc 203c 1252 9dbc abdc 6cbd 6881 51bd
000000d0: 8a21 6c3d d133 403a c15d 7b3b e51e 6d3d
000000e0: 1889 2dbc 3858 18bd 93d3 983d d116 f33c
000000f0: 1bb1 9f3b 0d6d 963d 8459 a9bd ac3f 943b
00000100: ab85 6b3d 698f 50bd e7a9 34bd 5d63 0a3d
00000110: cea6 34bd 5b5a 383d 6fef 7c3c 2ecb a83d
00000120: 285f 8d3c c1a8 52bd 3782 973d 7171 34bd
00000130: 9bb1 14bd f805 f0bc ad39 9a3d 9304 e83c
00000140: 4648 20bd 1129 85bd f27d 543c 72ee 85bd
00000150: 34c8 6f3d 48a8 b73d 0ec5 9c3d 8cfc 05bd
00000160: 7188 ae3b aa76 39bd 6b4e 203d 91c4 803c
00000170: 46cb b43d 9b61 67bd 8781 20bc 49dc e63c
00000180: 4580 363c 8d7c 8d3d c352 483d a052 8bbd
00000190: fa53 e43c cbc5 973d ed3f 963c fed6 ae3c
000001a0: 5cbd dc3c 1b01 603d 7672 103c e9f1 87bc
000001b0: 2e63 56bc a316 8f3a 0100 033d 63af 7e3d
000001c0: 081d ae3c 8640 9d3d 4af0 73bd eef3 c4bc
000001d0: 77fe f63c fc88 9a3d 8efe 2ebd 9ae1 11bd
000001e0: e15e 60bd e351 33bd 8395 7b3d 40b4 c0bc
000001f0: 3dcd 963c d819 c13c eb62 a3bd 81bf edbc
00000200: b477 75bc 032f 9a3d 595c c53d 16d3 993c
00000210: c47c 32bd ce5d b3bc bd23 6cbc 8316 10bd
00000220: d739 f2bc 282e ce3c e8cc 4dbd e4e8 14bd
00000230: 82e5 22bc 0d21 8f3d 1f7a 873d 4250 91bd
00000240: 5110 90bd 01ba 01bc 81b5 8cbc 7dd6 82bd
00000250: 8d78 cd3c b4bb 34bb fb8e 633d 152b d83c
00000260: 5afa 72bd 03df 4f3d 7c67 f73c 48c7 c33d
00000270: 8ab0 913d a7e8 e43c 2b16 3dbd c46b 55bd
00000280: 895b 033d 72a9 23bd b5ab 843c c198 143d
00000290: bb07 1cbd 3ea8 643d da8d ac3b 0353 e73c
000002a0: 9579 1e3d 5e2a 2f3d c097 403d a0c2 08bd
000002b0: 5aeb 71bd 6c81 8dbc 28dc 8e3b 8dc7 0cbd
000002c0: a1c6 023a c23b 25bd dd60 253c e5f5 e6bc
000002d0: 3b8e c63d c804 89bd bcc4 06bd 8192 fcbc
000002e0: fe8f 30b9 6a04 273d 4498 febc 9dda 41bd
000002f0: 6073 85bd 0c1a 84bd fe2c 0e3c 0871 843c
00000300: 88e5 8d3d 1a76 783d edde 8cbd b7fa a93d
00000310: 2575 5ebd 6176 5d3d 121a 2cbd 8aa6 813c
00000320: 8410 923d 4900 663d 4e9e 8cbd bdfe c73c
00000330: 77ab fd3c a4ee 913d c0ff bfbc 9d8e 0d3d
00000340: bef5 7e3d b85b e63c 4bb0 c03b 4d98 adbc
00000350: 9752 ea3b 7e1a a63c 4b44 983c 8166 e1bb
00000360: 99ff 57bd f4d3 20bd a9f2 d3bc bc57 a63d
00000370: 8290 30bd 68ea 76bd da2b 943d d6c1 6cbb
00000380: a5b3 3b3c ab56 57bd d3c5 3d3c 9691 8dbb
00000390: 1192 833d 6fe8 b13b a42f 85bd 17d0 453d
000003a0: 032e 87bb 2646 8d3b 09f9 36bd 252c 82bd
000003b0: a0ca 443d aa9c 443c 0511 f6bb 2f8f 923c
000003c0: 628d 163d fed3 36bd e836 a13b 2cda 1abd
000003d0: 2dd4 b53d 5cdf 0cbc 2e9a 84bd 12d8 273d
000003e0: 4a50 ffbc a429 0c3d 72ca bd3c 6f44 55bd
000003f0: ec0b 423d ba4d 0ebc ad6d f7bc ae61 38bd
0.05117104 0.011403676 0.015411346 -0.02371159 0.024289792 -0.033748005 0.013736379 0.033334866
0.011017924 -0.052380085 0.019523755 -0.021176452 -0.041849695 -0.07002837 0.04532284 0.012265056
0.08011593 0.05691285 0.026711183 0.028262109 -0.044616397 -0.06546417 -0.052173123 -0.051893365
0.08661907 0.061725464 -0.056371715 -0.06152194 0.036256224 -0.06766032 0.055682093 -0.0465899
0.03689274 -0.0115338685 0.08026288 -0.052228063 -0.032869574 -0.048167825 0.032215454 0.013749679
-0.054194637 0.01714811 -0.03572778 0.02942598 -0.028263992 0.057150237 -0.065273 -0.011596618
0.009825883 -0.019204173 -0.057827633 -0.051148802 0.057649173 0.000733194 0.0038355442 0.05789079
-0.010591768 -0.037193507 0.074622296 0.029673966 0.0048734075 0.073450185 -0.08269027 0.004524192
0.057500523 -0.050918017 -0.044107344 0.033786166 -0.04410439 0.045008045 0.015437945 0.082418784
0.017257288 -0.051430468 0.073978834 -0.0440535 -0.03630219 -0.029299721 0.07530532 0.028322494
-0.039131425 -0.065019734 0.012969481 -0.065396205 0.058540538 0.08967644 0.07654773 -0.03271155
0.0053263237 -0.045279182 0.039137285 0.01571873 0.08827834 -0.05648957 -0.009796507 0.028181212
0.01113898 0.06908522 0.048907053 -0.06802869 0.027872074 0.07410773 0.018341029 0.02134275
0.026945762 0.054688554 0.008816352 -0.016594844 -0.01308517 0.001091678 0.031982426 0.06217898
0.021254078 0.076783225 -0.05955533 -0.024042096 0.030150635 0.07545659 -0.04272323 -0.03561554
-0.054777984 -0.043779265 0.061421882 -0.02352345 0.018408412 0.023571894 -0.079778515 -0.02902198
-0.014982153 0.07528498 0.096367545 0.018777411 -0.043576017 -0.021895315 -0.014412818 -0.03517772
-0.029568596 0.025168493 -0.050244242 -0.036354914 -0.009942414 0.06988726 0.066150896 -0.07095386
-0.07034362 -0.007917882 -0.017176392 -0.06388567 0.025081897 -0.00275777 0.05555628 0.02638773
-0.059320785 0.05074979 0.030200712 0.09559494 0.0711375 0.027942969 -0.04616372 -0.052104726
0.032069717 -0.039956518 0.016195158 0.03627849 -0.03809331 0.05582451 0.0052659335 0.028237825
0.03869017 0.042765014 0.04701972 -0.033388734 -0.05906234 -0.017273627 0.0043597408 -0.034369994
0.00049887045 -0.040340193 0.010093895 -0.028193424 0.09695097 -0.06690365 -0.032902464 -0.030831577
-0.00016838309 0.040775694 -0.031078465 -0.047327626 -0.06516147 -0.064502805 0.008677719 0.016167179
0.06928545 0.060659505 -0.06878457 0.08299773 -0.054310936 0.054067973 -0.04201705 0.015826482
0.07132056 0.056152616 -0.06866132 0.02441346 0.03096555 0.07125595 -0.02343738 0.034559835
0.062246077 0.028119907 0.0058803908 -0.021190787 0.0071509588 0.020276304 0.018587252 -0.0068786745
-0.05273399 -0.039264634 -0.025872545 0.08122203 -0.043106563 -0.06028214 0.072349265 -0.0036126277
0.011456405 -0.052572887 0.0115828095 -0.0043203337 0.06424344 0.0054293196 -0.06503227 0.048294153
-0.004125358 0.004311341 -0.044671092 -0.06356076 0.0480448 0.012000242 -0.007509353 0.01789054
0.036755927 -0.044635765 0.0049198754 -0.03780572 0.0887836 -0.008598175 -0.0647472 0.040977545
-0.031166214 0.0342194 0.023167823 -0.052067216 0.04737465 -0.008685524 -0.030203665 -0.04501503

hal_net_2/sequential_8/gru_6/gru_cell_6/MatMul_1 f4 [24, 8]
00000000: f8a0 40be 68bb b13e 8b94 80bb 43f0 14be
00000010: 38c2 c13d 80a2 59bd 8c33 3b3e 4b72 e23e
00000020: cbd9 5a3e 20ed 9bba 0079 57be 8835 2cbb
00000030: 4ce2 b83d b707 1dbe 3105 963e 4973 10be
00000040: 0698 a73e 48f4 123e 6532 e73d a854 b7bc
00000050: 6cf9 e7bd 4a5d a03e 17f6 4f3e a4b8 94bc
00000060: b70c 6dbe a699 fa3c dbca 09be bcce fc3d
00000070: 5a16 82be cc3b 73be adb9 613e d82c 2c3c
00000080: eb08 633e 8414 bfbc 6723 a4bd 169c a13d
00000090: 0e6f f23d c6e0 0f3e 3fdd 623e df94 ef3e
000000a0: 36e2 0c3e 6af7 293e f6e0 243a cc7f 3cbd
000000b0: 6132 ecbe 78b6 cebe 84ea 42bd 6f63 603d
000000c0: ee4a c43d d9f5 5abe 742f 23be 6bf7 20bc
000000d0: 825f 3b3c 82c9 2fbd 3420 33bd 7bd8 8abd
000000e0: 4f20 383e 8a2b 513e ddbf 543e 19d7 023e
000000f0: cda3 833e 587d 84bd ec6d 0f3e 1ef8 7fbe
00000100: 5ce6 9bbd 8a74 a03e 9202 b5be 2450 e93c
00000110: c6c9 383e 5725 d13d 8960 febd 3463 60be
00000120: 3dee e3bd 36bd 54be 1f2f 013e 1b83 963d
00000130: e28c 5f3d 13c3 523e d071 6abe 7c7c c9bd
00000140: 21bb d13c c55c 02be 7eda 933c 9135 d03d
00000150: 58a4 253e b55e babe 978f 973e 3b67 42bd
00000160: be23 1a3e 165d 89bd 53e9 453e ebfd a43d
00000170: 84cc c7be d0c4 253d ce5f af3d 2a6e fdbd
00000180: 5442 d13d 24f1 703e ff3c b93e e6b4 9b3d
00000190: da91 623e de42 56be 294f cebd 4410 0d3d
000001a0: 1f2e 24be 684e 8abe 2541 23bd b49a 1cbe
000001b0: 1362 813d 7e80 213e a6ff c63e f81c 10be
000001c0: 155d 26be 1c8b c1be 0a96 1b3e 78ae 543e
000001d0: 9299 bd3c 6e18 4cbc 5a22 773e 080c ddbd
000001e0: 673b bfbe 5f79 f23d 6beb 73be 382f e23e
000001f0: 7b2e bc3d 2edc 803d ec2a 21be d5c3 5cbe
00000200: da0f b83e 88ff 993d 116e 61bc 9c74 393c
00000210: 3342 c23e c412 0fbe 4572 f83d 6857 94be
00000220: f2ac 433e b697 19be e516 14be 5e0f 003e
00000230: 62de 8b3d 1a08 abbe 7968 aebe 90ae 91bb
00000240: 7010 14be 2ab6 52be 7cd8 593e 5417 05bf
00000250: e98e 3abc e72d 47be d848 2fbd a276 88be
00000260: 9f44 2cbe 1abe 0ebe e3bf e93d d2df 373e
00000270: 4580 0b3e 411f d6be 4c07 52bd 9121 813e
00000280: 5ff6 d93d 9984 083e 5c8e 4f3e 316c 2ebe
00000290: 6a2d abbd 9828 9d3c bb46 a1be 46a9 02be
000002a0: 0070 07bc 0759 f43d 3b0f fdbe 85a4 b7be
000002b0: f9ac cabd 316f 1ebe 9cca bd3d fd95 17be
000002c0: 95d4 d3be 345f c33e 4152 9b3e ba5e e1bd
000002d0: 4615 443d 8a9b 4abd e6a1 4d3e 91aa 30be
000002e0: 4db2 b1bd 82fb 29be 5892 3fbd cca5 ccbe
000002f0: 1566 c63e 9dca 0c3c 4835 2abe a212 6e3e
-0.18811405 0.34713292 -0.0039239577 -0.14544778 0.094608724 -0.053133488 0.18281382 0.44227824
0.21372144 -0.001189623 -0.21042252 -0.0026277024 0.09027538 -0.15334974 0.29300836 -0.14106478
0.32733172 0.14350998 0.11288909 -0.022379234 -0.1132687 0.31321174 0.2030872 -0.01815445
-0.23149382 0.030590843 -0.1345629 0.12344119 -0.25407678 -0.2375328 0.22043486 0.010508738
0.2217137 -0.023325212 -0.08014565 0.07891099 0.11837588 0.14050588 0.22154711 0.46793267
0.13758168 0.16598287 0.00062896253 -0.046020314 -0.46132186 -0.40373588 -0.047586933 0.054782327
0.09584604 -0.21382846 -0.1593607 -0.009824614 0.011436345 -0.042916782 -0.043731883 -0.067795716
0.17981075 0.20426765 0.20776315 0.12777366 0.25710908 -0.0646922 0.14006776 -0.24996993
-0.07612297 0.31338912 -0.35353523 0.028480597 0.1804572 0.102122 -0.12420756 -0.21912843
-0.11129425 -0.20775303 0.12615632 0.07349225 0.054577716 0.20582227 -0.22894979 -0.09838197
0.025601925 -0.12730701 0.018048521 0.10166467 0.16175973 -0.3640038 0.29601738 -0.04746173
0.15052697 -0.06707208 0.19327287 0.080562435 -0.3902322 0.0404709 0.08563195 -0.12374528
0.10217729 0.23529488 0.3617935 0.07602863 0.2212595 -0.20923945 -0.10073692 0.03443934
-0.16033219 -0.27012944 -0.03985705 -0.1529339 0.06317534 0.15771672 0.3886692 -0.1407355
-0.16246445 -0.37801445 0.15193954 0.2076968 0.023144517 -0.012456996 0.24134198 -0.107933104
-0.37350008 0.11839556 -0.23820274 0.4417665 0.09188553 0.06291996 -0.1573903 -0.21559079
0.35949594 0.07519442 -0.013759152 0.011319306 0.3794113 -0.13972002 0.1213117 -0.28972936
0.19108942 -0.1499928 -0.14461859 0.12505862 0.068295255 -0.33404619 -0.3406408 -0.0044458583
-0.14459395 -0.20577303 0.21273988 -0.5198872 -0.0113866115 -0.19451104 -0.04279408 -0.2665301
-0.16823052 -0.13939705 0.114135526 0.17956474 0.1362315 -0.4182072 -0.05127649 0.25220922
0.10642695 0.13331832 0.2026915 -0.17033459 -0.083582714 0.019184396 -0.31499276 -0.12759885
-0.008266449 0.11931043 -0.49425682 -0.35867706 -0.09896273 -0.15472104 0.0926716 -0.1480331
-0.41373125 0.38158572 0.30336192 -0.11004396 0.04787185 -0.04946474 0.2008129 -0.17252566
-0.08676586 -0.16599849 -0.046770424 -0.39970243 0.38749757 0.008593229 -0.16621888 0.23249295

hal_net_2/sequential_8/gru_6/gru_cell_6/MatMul f4 [24, 992]
00000000: 5bb2 dc3c cac5 3fbd 359f 8dbd 6e5d 003d
00000010: 80b5 78bc 5e2a 913b 5d0f fd3c 7545 c03d
00000020: ca0a 29bd f444 c6bc 6f89 043d 89bf d03c
00000030: 5b26 953c 350c 7b3d 2ed6 7bbd c951 4e3d
00000040: 9b5f 92bd 6b7a 15bd 5ed4 d0bc e25c aa3d
00000050: a56d 48bd b708 78bd 0b67 673d 09fa 763d
00000060: e3d5 33bd 8095 893d 4bdb 5fbd 5a95 63bd
00000070: e747 0bbc 951c 583d f886 06bd 759f 3e3d
00000080: 1c0c ebbb 8c35 bb3c 8165 73bd 7e48 8abc
00000090: 705a 2bbd 4d77 bf3c 52d4 663d a699 7a3d
000000a0: b998 6ebb b595 27bd 5780 fe3c c550 343c
000000b0: 71fd 3cbd 247f e0bb c702 74bd 6fc5 32bd
000000c0: 0a35 3dbd 55e3 9d3c 7d3f 893d 3c1d e63c
000000d0: 9bef 0fbd 090b 093d cb51 5cbd cd8e 973d
000000e0: a162 4d3d f16a 133d a548 0e3d c431 993c
000000f0: f348 d73c 04c4 923c 3d46 46bd 35ed 233d
00000100: 72b5 0a3d 6002 0b3d a873 433d 745e 4abb
00000110: 12ed 2b3d 1932 5c3c 4bc1 a73c 1325 4ebd
00000120: b9f6 333d f98a 8bbc d0c9 813b e2ff 313d
00000130: 8845 00bd c677 80bc 121c 47bd a3fa 7b3d
00000140: 11b5 333c a7e9 883d 094a 65bd 8f1b c93c
00000150: 4027 413d 3847 c9bc d5b3 b3bc a888 1bbd
00000160: 9d9f 7abd a514 0bbd 2602 983d 1145 863d
00000170: 30fa 43bd 87cb 973d a8e3 5bbd 3a38 c93c
00000180: 8192 9ebd d280 d1bb a59b d0bc 275f f83c
00000190: c3c5 513d 952d b13d a3f2 b03c 6777 8dbd
000001a0: 358c dbbc 0209 96bd 27eb 203d a790 893c
000001b0: c96e 623d 3792 8e3d f075 393c 5e45 893d
000001c0: c994 32bd b493 92bc e755 5e3d ac49 173c
000001d0: 1060 373d 8796 60bd f45b f6bc 4742 cfbb
000001e0: 1149 2ebd 3b53 7a3d 4714 00bc d983 17bc
000001f0: 246c a9bc b807 aa3d 8737 46bd 4e66 1ebd
00000200: fa0b 8cbd f071 283d 3adf 673d 4e1f 8abd
00000210: 961a bc3d e27d 7cbd 9afe 03bd 675e 9cbd
00000220: 0842 993d 2ad6 a63d 7dbd 03bd 68fe 673c
00000230: e199 303d 5b3f 993d 56cb 953d 4a6c 3abd
00000240: 6f8b 843d bee9 6fbc 300f b73d f024 373d
00000250: 17af 5ebd 24a7 28bd 0020 083d 3897 3d3c
00000260: dbc4 663d 2717 9aba b904 3fbd b6ac 843d
00000270: 66a0 bfbc f3c8 3b3d 051d 37bd 2190 debc
00000280: 3dcb 4abd e507 163d 523c 3cbd 0879 653b
00000290: 9ad8 84bd 3bba a23d 8174 25bd 5370 4dbc
000002a0: 2fbe 16bc 2b8d 0fbd 4fa9 9fbd ad1d 7c3d
000002b0: 6b88 83bc f975 fe3c 14a8 883d 09e5 233d
000002c0: 4d3a 7dbd fa38 083d 910a 533d 9a9f 543d
000002d0: c4c4 b83c 0399 263d 45ba 093d 5648 ac3d
000002e0: 3293 83bd 57b0 a43d cd05 6dbd 271d 333d
000002f0: 6a12 da3c e7a5 8abd 5f64 cc3c e77f 873d
00000300: 4f92 873d c159 093d 9a7b 04bd 50f4 8a3d
00000310: 681f 233c 5efc 2a3c 0842 2dbd 5eda 663d
00000320: a73f a6bc 97d9 2b3c 6179 fcbb 8bac cbbc
00000330: 6902 a23d 04ed 72bc ce67 a63c d7f8 b63b
00000340: bf46 c1bc c9e4 813d 4505 5bbd 36d3 b83d
00000350: 877b 11bd 724c 9b3d 0890 c63c 1c38 5fbd
00000360: 1fd7 923d 2eb2 913d 9bb0 7fbc f85e 423d
00000370: 74ff b5bc 62bf 643d 8523 403d 35fa 05bd
00000380: 7a58 b33d d939 67bd a314 87bb 2989 b73c
00000390: 38f5 e43a 927c 15bd b8ba 7a3d 54d2 0ebd
000003a0: 830d 08bc 86c1 a43d cc2f 07bd 29e1 e03c
000003b0: aa60 7f3d 880d 1dba b51d 84bc 6a65 04bd
000003c0: 5290 5d3d d19b 103d ba4d 9e3d 1cf8 11bd
000003d0: 9e3c 833a 3b1f ccbb e658 873d 98cb bb3c
000003e0: ca3d 1f3d 3d6b 34bd ff8f b8bc 2cad 51bd
000003f0: 48dc 96bc 01d9 333a 6530 e33b 77a1 ff3c
0.026940515 -0.046819486 -0.06915132 0.0313391 -0.015179992 0.0044300994 0.030891115 0.09388248
-0.041270055 -0.024202801 0.03235763 0.025481956 0.018206766 0.06129094 -0.061483555 0.050370965
-0.071471415 -0.0364937 -0.02549189 0.08318497 -0.04893269 -0.060555186 0.056494754 0.060297046
-0.04390515 0.06717968 -0.054652493 -0.055562355 -0.00850103 0.052761633 -0.03284356 0.04653879
-0.0071730744 0.022852682 -0.059422974 -0.01688027 -0.041834295 0.023372317 0.05635483 0.061181687
-0.0036406948 -0.040914256 0.031067057 0.011005585 -0.046140138 -0.006851094 -0.05957296 -0.04364532
-0.04619316 0.01927344 0.067015626 0.028090112 -0.035140615 0.03345779 -0.05378894 0.07400284
0.050142888 0.03599066 0.034737248 0.018700488 0.026279902 0.017915733 -0.04840683 0.04002114
0.033864446 0.03393781 0.04771772 -0.0030879052 0.041974135 0.013439679 0.020477911 -0.050328325
0.043936465 -0.01703404 0.0039608255 0.04345692 -0.03131631 -0.015682112 -0.048610754 0.061518323
0.010968463 0.06685191 -0.05597881 0.024549274 0.047156572 -0.024570093 -0.021936337 -0.037972122
-0.061187375 -0.033955235 0.07422285 0.06556142 -0.04784602 0.07411867 -0.053683907 0.024562944
-0.07742787 -0.0063935304 -0.025464842 0.03031881 0.05121399 0.08651272 0.021600073 -0.0690754
-0.026800254 -0.07325937 0.03928676 0.016792608 0.055281434 0.06961482 0.011319622 0.06702684
-0.043598924 -0.017892696 0.05428114 0.009233873 0.044769347 -0.054831054 -0.030073144 -0.0063250395
-0.04255015 0.06111453 -0.0078173345 -0.0092477435 -0.020681448 0.083022535 -0.0483928 -0.038671784
-0.06838222 0.041124284 0.05660937 -0.06744252 0.09184758 -0.06164349 -0.03222523 -0.07635193
0.074832976 0.08146317 -0.032163132 0.014159776 0.0431155 0.07482787 0.07314174 -0.04551343
0.06471907 -0.014643131 0.08938444 0.04471296 -0.054366197 -0.041175023 0.033233643 0.011571698
0.05634008 -0.0011756168 -0.046635363 0.064782545 -0.023391914 0.045845937 -0.04470541 -0.027168335
-0.04951023 0.036628623 -0.045955963 0.0035014767 -0.06486626 0.07945677 -0.04039431 -0.012538987
-0.009200617 -0.035046738 -0.07795965 0.06155174 -0.01605626 0.031062113 0.06672683 0.040013347
-0.061823178 0.033257462 0.05152375 0.05191002 0.022554763 0.040673267 0.033624906 0.084122345
-0.0642456 0.08041447 -0.05786686 0.043728974 0.026620109 -0.067699246 0.024950204 0.06616192
0.06619703 0.03353286 -0.032344438 0.0678488 0.009956218 0.010436146 -0.0422993 0.056360595
-0.020294024 0.010488889 -0.007704899 -0.024862548 0.07910616 -0.014827017 0.02031317 0.0055838632
-0.023593305 0.063424654 -0.053471822 0.0902466 -0.035518195 0.0758294 0.024238601 -0.05449687
0.07169937 0.07114063 -0.015606071 0.04745385 -0.022216536 0.05584658 0.046908874 -0.03270932
0.0875711 -0.056451652 -0.004122333 0.02240427 0.00174681 -0.036495753 0.061213225 -0.034868553
-0.008304003 0.08044724 -0.033004567 0.027451115 0.062348045 -0.0005991091 -0.016127447 -0.03232328
0.054092713 0.035304848 0.07729669 -0.035637006 0.0010012572 -0.006229309 0.06608753 0.02292423
0.038877286 -0.044047583 -0.0225296 -0.05119054 -0.018415585 0.0006860644 0.0069332593 0.031204922

hal_net_2/sequential_9/gru_7/gru_cell_7/MatMul_1 f4 [24, 8]
00000000: c87e 33be a4b3 c23d 4f40 ec3c 45ae ec3d
00000010: be2c af3a 2ade 8abe 58ca 03be 4ea0 da3e
00000020: 84d2 49bd 0a0d 8b3e 650f 9ebd 88c0 403d
00000030: 5b57 1d3e ab0f ed3c 38be 20be 596a 953d
00000040: 4251 49be 2109 5cbe 00f8 ae3e 17db 083e
00000050: e491 eb3d 7693 093e 8921 20be 3c53 77be
00000060: 35e5 a9be 7e10 853e 02ca 83bd 1fa2 33be
00000070: 59db 59be 8f2d 853e 6aa0 f63d 9831 bc3d
00000080: 03bb 01bf 5ddd f03d 6e14 843e 8845 053e
00000090: 4a60 a5bd 11ef e8bd 4a49 913e 31ff a43d
000000a0: 84c3 9139 93ca 043d 7a95 813e c81c 263e
000000b0: b1a7 d23e 71d4 343d dee1 98be 591e 81bd
000000c0: a113 efbd 0445 7fbe 481d 09be 9d64 dcbe
000000d0: 68f1 43bc 7fed 4ebe 448d f4bd 8a64 4fbe
000000e0: c2b7 563e ca9f 0cbe b9d7 48be cb8b 9c3e
000000f0: ef32 e3bc 3c02 90be e81f 4e3e 0a27 97bd
00000100: a21d 143e 8096 d73e 0dac 933c c235 21bc
00000110: da54 bebd e391 9bbe cb79 07bd 14ff 8ebe
00000120: 600f 363e 52e1 5a3d 8202 90bc 5da8 cabd
00000130: 6eea 80be 92af 76be 3fc7 cd3e ba0c 7cbe
00000140: dd33 123b 2def 20be 67d4 05be abb1 1c3e
00000150: ca78 173e f7b0 4abe d7b6 e5bd a74c 68bc
00000160: c6c0 9a3c aec5 223e e9fa 9bbe 930c 0abe
00000170: 0d70 ab3e c4c9 c63b 7cfa a9bb 5bcb c2bb
00000180: 0a00 c3bd ebee 703e 32a1 35be 1c61 6b3e
00000190: edcd a2be aea0 903e 761a 07be 2a42 65be
000001a0: b258 91bd 5f53 36be ea70 6cbe 0967 0e3f
000001b0: 5c28 e83d 6c4c 123c 6e6e 8c3e 04c4 263e
000001c0: 33f3 1fbe a744 22be 527a 073b b257 8fbe
000001d0: 8c26 463e 0620 263e 78a2 b73e 975c 823e
000001e0: 4772 8f3d 9b8a 953d 4d0b 40bb 361b 3bbd
000001f0: 0de1 d83d c073 073e 2996 e8bd f600 83be
00000200: d345 64be 6a97 92bd 44a8 f0be a670 0b3c
00000210: 1ceb 22be acae 0fbe 3ca9 87be 34ce 6a3d
00000220: 5918 c83e 4194 a83e 3e8d b5bd a63c 68bd
00000230: 2b98 923c 5c49 533e 6a4c b3bd b4b9 e83e
00000240: b79e 4a3d be21 1c3d 9f39 21be c057 713e
00000250: 9540 923d 0696 f23e e1ab 453e 449a 91be
00000260: 5499 fabd fef5 3f3c 4b25 24be 6c0f dd3d
00000270: 7d66 88be 6208 2abd 5651 16be 3321 863d
00000280: 959f 283e 4f8e afbe 3152 8fbe 0871 26be
00000290: acea 6b3d 3ee0 4e3e 3f47 843d 9cca 323d
000002a0: f577 25be 6470 0ebe 24c2 75bd 74ed cabd
000002b0: fe58 63be 32e3 633e 5c65 94bd 60e4 a9bb
000002c0: 14c9 8cbe 2035 a43e 1841 89be c888 dbbd
000002d0: 6a45 ea3e a3a3 e1bd da35 823e a2b0 45be
000002e0: e617 78be acdd 91bd 0335 74be c006 163d
000002f0: 5bb7 c03d ff7e edbc 0e65 8cbe a4fd bdbd
-0.17528832 0.0950692 0.028839258 0.11556677 0.0013364775 -0.27122623 -0.12870157 0.42700428
-0.04927303 0.27158386 -0.0771778 0.047058612 0.15365355 0.028938135 -0.15697563 0.07295675
-0.19659904 -0.21487857 0.34173584 0.13364826 0.11502436 0.13435158 -0.15637793 -0.24152845
-0.33182684 0.25989145 -0.06435014 -0.17542313 -0.2127508 0.2601132 0.12042315 0.09189147
-0.5067598 0.11760972 0.25796837 0.13014805 -0.08075006 -0.11373723 0.28376228 0.080564864
0.00027802226 0.032419752 0.25309354 0.16221917 0.41143563 0.044147912 -0.29859823 -0.063046165
-0.11673666 -0.24928671 -0.13390076 -0.43045512 -0.011959411 -0.20207785 -0.11941007 -0.20253196
0.20968536 -0.1373283 -0.19613542 0.30575404 -0.027734248 -0.28126705 0.20129359 -0.07380493
0.14464429 0.4210701 0.018026376 -0.009839477 -0.09293528 -0.3038474 -0.033075135 -0.27928984
0.17779303 0.05343754 -0.01757932 -0.09895394 -0.25178856 -0.24090412 0.40191075 -0.2461423
0.0022308745 -0.15716238 -0.13069306 0.1530215 0.14792171 -0.19794069 -0.112165146 -0.014178432
0.01889075 0.15895721 -0.30464867 -0.13481359 0.33483925 0.006066533 -0.005187331 -0.005944652
-0.09521492 0.2352864 -0.17737272 0.22986263 -0.31797734 0.2824759 -0.13193688 -0.22388521
-0.070969954 -0.17805241 -0.23089948 0.5562597 0.11335823 0.008929353 0.27428 0.16285712
-0.15620117 -0.15846501 0.0020672274 -0.27996594 0.19350642 0.16223153 0.3586614 0.25461265
0.070042185 0.073018275 -0.002930361 -0.045680247 0.105898 0.13227749 -0.11356766 -0.2558667
-0.22292261 -0.07157786 -0.47003376 0.008510744 -0.1591 -0.14031476 -0.26496303 0.057325557
0.39081076 0.3292561 -0.088648304 -0.056698464 0.017894825 0.20633453 -0.08754809 0.4545418
0.04946777 0.038118117 -0.15744637 0.2356863 0.07141224 0.47380084 0.19303848 -0.28438008
-0.12236276 0.011716364 -0.16029851 0.10793957 -0.26640692 -0.0415119 -0.14679465 0.06549301
0.16467126 -0.3428826 -0.27992395 -0.16254056 0.057596847 0.20202729 0.064589016 0.043650255
-0.16159041 -0.13910061 -0.0599996 -0.09908572 -0.22201917 0.22254637 -0.07245895 -0.005184695
-0.2749716 0.3207178 -0.26807475 -0.10719448 0.45756084 -0.11017539 0.2543171 -0.19305661
-0.24227867 -0.07122359 -0.23848347 0.03662753 0.09409972 -0.02899122 -0.2742085 -0.09276894

hal_net_2/sequential_9/gru_7/gru_cell_7/MatMul f4 [24, 960]
00000000: 58ba 2d3d ddb2 4bbc bb8a 2fbd 2a2c 89bd
00000010: 4c7f b93b 59bb 9b3c e8aa 0a3d 28ee 853c
00000020: 7370 5e3d 1667 36bd 8174 98bd aa1e 76bc
00000030: ee0c b6bc 85f9 533b 3b27 89bd 2a70 00bd
00000040: 6b0f 853d be3c 7dbd 7e65 f4ba c2cb f83b
00000050: 2fa3 bf3c cee0 553d eecc 5f3b 8967 09bc
00000060: 1a88 c2bd 9dd0 293c d3b7 f2bb 2ff2 26bd
00000070: 39c1 c93c 4c2a a83c ed7d ae3c 2546 90bd
00000080: e09f 70bd c9c7 1ebd 4c96 543d 56b0 adbd
00000090: d105 6b3c b230 86bd 21c0 22bd 0a15 d93c
000000a0: 9062 cebd a313 d1bc e499 28bd 4c42 5d3c
000000b0: 6075 e23c e99a 33bc dafc 8d3c fe85 0cbd
000000c0: 6a48 303c 058e 24bc 6551 053d 2b32 79bd
000000d0: 7460 593d 0b2a 553d 9e4c a5bc 4ae9 ef3c
000000e0: 1b0d a8bd 8b49 8e3d 2435 9bbd 69d8 b8bc
000000f0: 4ba9 93bd c467 233c b8ff dd3c 0f3c 3d3d
00000100: fd14 87bb 2ce5 76ba e2a0 c0bc 0414 233d
00000110: a1ee 993b b0ed 7cbc 9741 a5bc 8737 73bd
00000120: 8511 22bd 0a48 e1bc 2e17 11bd 4dc3 3a3d
00000130: 182c 4abc ada6 3e3d baa7 5b3d a54f 423c
00000140: 0314 e23c c840 493d 55e0 babd 9d50 5fbd
00000150: 7642 4fbd 56f4 94bd 5450 48bd 797f b2bd
00000160: 4fb5 7bbd fda0 ab3c dfb1 73bd 8845 2bbd
00000170: 9db8 273d f337 f4bc 9686 e93c aa6a 913c
00000180: 61d2 58bd 2f4c 40bd 1362 213d 8e60 82bd
00000190: 2f34 bbbd cf3c b4bd 7b30 f63c cd81 64bd
000001a0: 6098 b0bc 92ed 71bd 1704 30bd 6683 223b
000001b0: cfa7 a1bd 8ed7 61bd 71ee 1c3d 80a9 aa39
000001c0: 9a4c 723d cbbc 9bbd 84a2 653b 28ad 2c3d
000001d0: 3b26 54bd f90c 0ebd b378 2abd 9220 19bd
000001e0: eb7d f03c c646 10bd f5a5 b2bd adfb 39bd
000001f0: 3834 953c a5fd 0b3d 0331 2fbd 08c5 2ebd
00000200: e834 82bc 3608 14bd 275b 933d 6468 80bc
00000210: dd28 44bc 5bd8 f9bc 54a2 a43c 57af db3d
00000220: 435a 33bd b961 363c 4e03 3b3d 442a 58bd
00000230: ed73 893d 04f4 19bd d8cd 17bc fe8e 473d
00000240: 22be 49bd 311c 1e3d f16a 863c 1f46 88bd
00000250: 9e04 383d eff4 11bc c52f 46bd 9263 91bd
00000260: 7faf 5abd be7a af3d 6436 29bd 3b1e 133d
00000270: 6dd5 113c 3074 ad3d 86ae 51bd bd9b 1cbd
00000280: 6449 973c 6506 45bc 75c7 9bbc d574 94bc
00000290: af83 683d a534 63bc f2b3 8dbd a34e 433c
000002a0: 3ed8 6d3c 069f ab3c 6c6b 083c 6972 183d
000002b0: 3b3b 04bd a92d b3bb f584 623d 5b23 c5bc
000002c0: 6d4f eebc 7265 00bd ead4 a63c 11f0 f6bc
000002d0: 9926 a73d 21e5 6fbd 27fe 91bd 3aca a1bc
000002e0: 28da 40bd e98a b03c 5711 833d 025f 15bd
000002f0: 5aa5 ddbd d4c6 f3bc 197f a6bc d438 76bc
00000300: ee06 cabd 4bcc 1d3d 8adb dcbc 2109 1b3c
00000310: 3076 b0bd 41f6 d73c 811c 0e3c aff0 b0bc
00000320: 843e ddbb d986 8ebd c807 afbd 9c35 1d3d
00000330: 0ccb 373d da6a ed3c 87da 8c3b c37f 31bd
00000340: bcfb 44bc 1154 503d 3796 5d3d 8cdc a0bd
00000350: 1f09 12bd 36a1 dabc 5522 5fbd 86e8 a3bd
00000360: 5683 723c 238e bf3a bff6 bbbd 14d1 413d
00000370: 79bf 44bd a66f 87bc d7fc a9bd 23fa ae3c
00000380: ff45 86bd d15a a1bc a071 49bd dea0 d9bd
00000390: 0894 89bc 30b9 a53c 9a78 3a3d 5ef2 58bd
000003a0: 3237 81bd e470 90bd 50a7 8a3c 5140 99bd
000003b0: 10e6 4cbd 0d36 413d 20fd 9db9 0767 f5bc
000003c0: 830c a9bd 4591 43bd 0469 803d 9c55 d63c
000003d0: fe20 1e3a c242 e93b 4eb0 87bd 6be1 803d
000003e0: 0a79 053d ae13 45bd c4d0 93bd 4c50 a0bd
000003f0: d612 c73c 38d9 98bd d18c bb3c 967d 94bc
0.04241404 -0.012432781 -0.042856913 -0.06697877 0.005660927 0.019010233 0.033854395 0.016348913
0.05430646 -0.044531904 -0.07444096 -0.015021959 -0.022222962 0.003234477 -0.06696936 -0.031356968
0.06497081 -0.061825506 -0.001864597 0.007592649 0.023393242 0.052216344 0.0034149247 -0.008386501
-0.094986156 0.010364679 -0.0074071675 -0.040758308 0.024628269 0.020527981 0.02130028 -0.07044629
-0.05874622 -0.03876475 0.051901147 -0.08480899 0.014344648 -0.06552257 -0.03973401 0.02649929
-0.10077393 -0.025522059 -0.041162387 0.013504576 0.02764386 -0.010962226 0.017332483 -0.034307472
0.010759452 -0.010043626 0.032548327 -0.06083886 0.0530705 0.05204205 -0.020178135 0.029286046
-0.08205625 0.06947621 -0.07578495 -0.02256413 -0.072100244 0.00997347 0.027099475 0.046199854
-0.004122375 -0.00094183045 -0.023514215 0.03981401 0.0046976362 -0.0154375285 -0.020172877 -0.059379127
-0.03956749 -0.027500171 -0.035422496 0.04559641 -0.012339614 0.046545673 0.053626753 0.011859809
0.027597433 0.049134046 -0.09124819 -0.05452024 -0.05060049 -0.07273166 -0.048904732 -0.0871572
-0.061452206 0.020950789 -0.059495803 -0.041814357 0.040947545 -0.029811835 0.028506558 0.017751057
-0.052935008 -0.046947654 0.03940017 -0.063660726 -0.091408126 -0.08800661 0.030052414 -0.05578785
-0.021557033 -0.059064455 -0.04297265 0.0024797558 -0.07893335 -0.05513721 0.038313333 0.00032551214
0.059155084 -0.07604369 0.0035039494 0.042157322 -0.051794272 -0.03468034 -0.041619014 -0.037384577
0.029356917 -0.035223745 -0.0872306 -0.045406032 0.018213376 0.03417744 -0.04277135 -0.042668372
-0.015894368 -0.036140643 0.0719512 -0.015674777 -0.011972633 -0.030498674 0.020096935 0.10726803
-0.043787252 0.011131697 0.04565745 -0.052774683 0.06711564 -0.037586227 -0.009265386 0.048720352
-0.04925359 0.038601104 0.016408416 -0.066539995 0.04492628 -0.008908494 -0.0483854 -0.0709907
-0.053390022 0.08568333 -0.041311637 0.035917502 0.008900982 0.08469427 -0.05119183 -0.03823446
0.018467613 -0.01202545 -0.019016007 -0.018122116 0.05676621 -0.013867532 -0.069190875 0.011920604
0.014516888 0.020949852 0.008326393 0.037218485 -0.03228305 -0.0054680896 0.05530258 -0.02406471
-0.029090608 -0.031346746 0.020365197 -0.03014377 0.08161659 -0.058568124 -0.07128554 -0.01974975
-0.04708305 0.021550613 0.06399792 -0.03646756 -0.10822554 -0.029757895 -0.020324277 -0.015028197
-0.09864603 0.038524907 -0.026960153 0.009462626 -0.086162925 0.02636254 0.008673788 -0.021599142
-0.006751837 -0.06959314 -0.08546406 0.038381204 0.044871375 0.028981615 0.0042985114 -0.043334734
-0.012022909 0.050861422 0.054098334 -0.07854566 -0.03565323 -0.0266882 -0.0544761 -0.08003335
0.014801821 0.0014614504 -0.091779225 0.047318533 -0.048034165 -0.01653273 -0.083001785 0.021359509
-0.065563194 -0.019696625 -0.049180627 -0.10626386 -0.01679422 0.020229906 0.04552517 -0.052965514
-0.06309356 -0.07052782 0.016925484 -0.074829705 -0.050024092 0.047170687 -0.00030133966 -0.029956354
-0.082543395 -0.04774596 0.0627003 0.026163869 0.0006032138 0.007118554 -0.06625424 0.06292995
0.032586135 -0.04811447 -0.07217553 -0.078278154 0.024300974 -0.07463306 0.022894295 -0.01812629

hal_net_2/sequential_11/dense_4/MatMul f4 [32, 24]
00000000: 9456 1a3e 70f2 533d eda0 18be 7468 fabd
00000010: 13a8 833e bb59 a23d 6b97 84bd f3c2 973c
00000020: 29d4 d8bd c24a b13e d4c9 983e 5ac1 523c
00000030: a0f8 97be 9bb8 b3bd a30b f53d 31b6 5c3e
00000040: 2df9 0f3e 8104 7abe fc11 7ebe 6007 183e
00000050: 800f db3d 52cc 4d3d 6565 2d3e 194b 03be
00000060: a4e5 f43c 2676 8f3e ff41 30be 26dc 313e
00000070: 628a 383e 23b7 7abd 2654 78be 126b 7b3e
00000080: da65 4fbe 1b22 5b3d 37bd 973e b40b 92be
00000090: 4dfe aebe 6782 143d 4abc 293e 8b92 583e
000000a0: 86d9 893e 952c 193e 4b9e f53d 32d2 93be
000000b0: 8898 143e 8f40 b43e 4db9 94bd 24ba a5bd
000000c0: 093c 0f3e cdfe a93d 08c1 42be 3b4e 6dbe
000000d0: b614 7ebe ec80 81be 60aa 863e dff9 053d
000000e0: 6123 d8bd 738a 3ebe d617 0cbe 953e 3dbe
000000f0: a1c1 8e3e 62ce a53e 68db 6abe 12b6 a53e
00000100: 69c7 a13e f235 8c3e 21ac 4abe 0923 84be
00000110: 3f56 a4be d8f2 61be 5fdc a1be c0e8 2cbc
00000120: 892f 203e cf07 cd3d 1a3c 8d3e 2f24 133d
00000130: 5948 6abe 2634 073e 20ce 67be 9752 20be
00000140: 695b 7a3d 14d5 66bd f72c bc3d 6fff 92be
00000150: 2f48 f0bd 27ef 8c3c 420f 9cbe 64e7 3cbe
00000160: 1acc 463e 46c9 8abe 8a24 7cbe 360b 6fbd
00000170: 3e89 833d 7a12 e5bb 56b5 eabd 95b7 f5bc
00000180: 8b9d 4f3e 92cc 46be 50e7 8c3d fe3d 20be
00000190: c81d 893e e723 80be 3a01 cebd f543 683e
000001a0: 6c4b 13be ee22 22be abc7 713e c1c8 babe
000001b0: aeb6 b8bd 0b0d 6dbe c81a 95be 246c 3f3e
000001c0: c28f 743e 61f8 603e 5a9c 8e3e 14e3 fd3d
000001d0: 9ff4 13bd 4d18 cebc 6356 483e c5f0 653e
000001e0: b067 c23d 2025 a5bd 53ca 4e3e 34b2 773d
000001f0: ca23 6c3d 5511 99be 2bc3 5ebe 6ffa 93be
00000200: ff9b 24be c3cf 033e 0548 1fbe bc38 33be
00000210: 97df 07be 61a2 543e a7fe 933e ea1e 983e
00000220: 87ff 0bbe 1a39 4e3d d3c0 a03e 6515 b33d
00000230: 9478 23be 6f9d 9cbe 0fb9 5d3d 9d01 83be
00000240: b616 8cbe bb89 9d3d 2d54 90bd 5d6e 25be
00000250: 64e7 863e f34b 0fbe c6ad b13c 0a55 1fbe
00000260: 997a 96be d3dd 33be 7436 ec3b 2b7d 60be
00000270: 6ecc 81be bc82 94be f44e 34be c5ea e53c
00000280: 4f2a 76bc b59a d13d b20a 45be aa7b 42be
00000290: 49d2 233e 50ab b13c 10a5 48be 8a8e 953e
000002a0: 7ae3 f63c 8f8f 94b9 a7a7 c43c db67 cd3d
000002b0: 84e3 9c3e 6282 1ebe f4fb fbbd 64a9 323d
000002c0: b6cd 38bc 1484 57be 9ba1 75bd 42cc a53e
000002d0: 49dd 963e 4e60 4a3d 31d6 083e d260 1ebe
000002e0: 23e7 0a3d 10ff 55bd f5fc 2d3d 2c8d 88be
000002f0: fd86 28bb d3ec 053e 085c f23d f3ba 483e
00000300: 6e5e 703e 0095 8e3d 4537 99be 8fe9 9e3e
00000310: abb6 ca3d 6047 ad3c 03cb 313e bc14 90be
00000320: e32b 743e 0678 3e3e a800 a0be 3ec2 283c
00000330: 5cbc f03d 4c89 103e 93de 053c ad52 98bb
00000340: 43e5 26be 405a 6dbe 5862 4bbe b7e1 e1bc
00000350: f131 ba3e b003 9a3e 9f85 3b3e 588d ebbd
00000360: 5ff0 8dbe 90f7 823c b4ac 95be dd3b a6bd
00000370: fadd 88be a6a9 19bd ed04 943e 38bb e83d
00000380: 1243 60be 337b 8a3e 93bf 82be 1cd6 783e
00000390: 4c93 dcbd 2af7 2f3e a31c 49be d023 42be
000003a0: b876 3bbe 4637 3bbb 825e 863e b14d c13d
000003b0: 72f9 87be aca0 253e ed54 76be 727b 3f3e
000003c0: 15e9 753d fbbe 853e 421c bd3c f3f6 453e
000003d0: 0283 66be 6bcc 3f3e 22cf debd 2704 5fbe
000003e0: 9404 8bbd 39ea 98be 83a7 803e 0e34 353e
000003f0: 59fc 92be c355 03be c0c4 063e fd86 5d3b
0.1507209 0.05174488 -0.14905138 -0.12226954 0.25714168 0.07927271 -0.06474193 0.018525576
-0.10587341 0.34627348 0.29841483 0.012863481 -0.29681873 -0.08775445 0.1196511 0.21553876
0.14059897 -0.2441578 -0.24811548 0.14846563 0.10696316 0.050243683 0.1693321 -0.12821616
0.029894657 0.28019828 -0.17212676 0.17369136 0.18021539 -0.06120981 -0.2425085 0.24552563
-0.20253697 0.053499322 0.29636547 -0.28524554 -0.3417839 0.036257174 0.16575733 0.21149652
0.2692377 0.14958413 0.119930826 -0.28871304 0.14511311 0.35205504 -0.07261906 -0.08092144
0.13987745 0.083005525 -0.19018948 -0.23174374 -0.24812588 -0.25293672 0.2630186 0.032709
-0.10553623 -0.18607502 -0.13680968 -0.18480904 0.27882102 0.3238402 -0.2293526 0.3236547
0.3159745 0.27384907 -0.19792224 -0.2580798 -0.3209705 -0.22065294 -0.31613442 -0.010553539
0.15643133 0.10011255 0.27584916 0.03592318 -0.22879161 0.13203487 -0.22637224 -0.15656506
0.06112233 -0.05635555 0.09188264 -0.28710505 -0.11732518 0.01720388 -0.3048039 -0.18447644
0.19413796 -0.27106684 -0.24623314 -0.0583603 0.06422661 -0.006990728 -0.11460368 -0.029994765
0.20274942 -0.19413975 0.06880057 -0.15648648 0.26780534 -0.2502739 -0.10058828 0.22682174
-0.1438424 -0.15833637 0.23611324 -0.36481288 -0.090192184 -0.23149507 -0.29121995 0.18693596
0.23882964 0.21969749 0.27853662 0.12396827 -0.03612196 -0.025158072 0.19564204 0.22455128
0.09492433 -0.08063722 0.20194368 0.060472682 0.05765132 -0.29896036 -0.21754138 -0.28902003
-0.16075133 0.12872224 -0.15554817 -0.17502111 -0.13268887 0.20765068 0.28905222 0.29711086
-0.13671695 0.050347425 0.31397113 0.08744315 -0.15963966 -0.30588862 0.054131564 -0.25587168
-0.27361077 0.076922856 -0.07047305 -0.16155382 0.26348412 -0.13993816 0.021689307 -0.15559784
-0.2939041 -0.17565088 0.0072086398 -0.21922748 -0.2535128 -0.29005992 -0.17608243 0.028066048
-0.015024736 0.10234586 -0.19242361 -0.18992487 0.15998186 0.021688133 -0.19594216 0.2921031
0.030137766 -0.0002833572 0.024005724 0.100295745 0.3064233 -0.15479425 -0.123039156 0.043618575
-0.011279514 -0.21046478 -0.059968572 0.323824 0.29465702 0.04940825 0.13362958 -0.15466622
0.033911835 -0.0522452 0.042477567 -0.26670206 -0.0025715225 0.13078623 0.1183396 0.19602565
0.23473522 0.06962013 -0.2992498 0.31037566 0.098981224 0.021152198 0.17362599 -0.2814082
0.23844866 0.18600473 -0.312505 0.010300217 0.11754677 0.14114875 0.008170742 -0.0046485276
-0.16298394 -0.23178959 -0.19861734 -0.02757345 0.36366227 0.30080938 0.18312691 -0.115015686
-0.2772245 0.015987188 -0.29233325 -0.08116887 -0.26731855 -0.037515305 0.28910008 0.11363834
-0.21900585 0.2704712 -0.25536785 0.24300426 -0.10770282 0.1718413 -0.1963983 -0.18958974
-0.18307006 -0.002856688 0.2624398 0.094386466 -0.265575 0.16174573 -0.24055834 0.18699434
0.060036737 0.2612227 0.023084763 0.19332485 -0.22510913 0.18730323 -0.10879351 -0.21778928
-0.067879826 -0.29866198 0.251278 0.17695639 -0.2870815 -0.12825684 0.13160992 0.0033802383
