inc/one_input_gru_model.tflite (tflite, 303428 bytes, 28 tensors)

dense_8/bias f4 [32]
-0.048597887 -0.072592765 0.02263065 -0.019032244 -0.07883011 -0.112969734 -0.058491245 0.083576165
0.007786514 0.045588177 -0.11141224 -0.031470455 0.037468497 0.018514449 -0.05464098 0.01745085
-0.031017995 0.009488503 0.0072862366 0.09528646 0.11386147 -0.082211025 0.073575124 -0.08980972
0.008288216 -0.0306247 -0.07200192 0.09053533 -0.023082782 0.007989342 -0.030515244 0.23640965
00000000: 940e 47bd 84ab 94bd ea63 b93c 82e9 9bbc
00000010: ae71 a1bd ad5c e7bd 8494 6fbd fb29 ab3d
00000020: 0326 ff3b abba 3a3d 1a2c e4bd 2ae7 00bd
00000030: 9178 193d 9dab 973c 38cf 5fbd 16f5 8e3c
00000040: 7319 febc ab75 1b3c 62c1 ee3b 8c25 c33d
00000050: 3430 e93d 415e a8bd 8eae 963d 29ee b7bd
00000060: 4ccb 073c a7e0 fabc be75 93bd 966a b93d
00000070: 1a18 bdbc bbe5 023c 1bfb f9bc 5f15 723e

conv2d_37/bias f4 [32]
-0.050383225 0.007121701 -0.010752579 -0.028534869 -0.024810275 -0.082466036 -0.04496585 -0.0032710168
0.010682224 -0.019372584 -0.011660373 -0.0067514945 -0.012217295 -0.012380324 -0.01191863 -0.0036905855
-0.012959454 -0.010587586 -0.035878293 -0.01455239 -0.004176381 -0.043633692 -0.018837301 -0.056240734
-0.014537007 -0.01679005 -0.0012731754 -0.03962314 -0.0050999285 -0.028993156 -0.04859451 -0.033746
00000000: a45e 4ebd 285d e93b 962b 30bc f5c1 e9bc
00000010: eb3e cbbc f4e3 a8bd 1c2e 38bd 8e5e 56bb
00000020: 7f04 2f3c 41b3 9ebc 260b 3fbc a43b ddbb
00000030: 0d2b 48bc d8d6 4abc 5c46 43bc c0dd 71bb
00000040: e453 54bc 8e77 2dbc 1ef5 12bd 266d 6ebc
00000050: 06da 88bb 3eb9 32bd af50 9abc af5c 66bd
00000060: a02c 6ebc 498b 89bc ade0 a6ba e04b 22bd
00000070: 4d1d a7bb 0e83 edbc 090b 47bd 3f39 0abd

conv2d_36/bias f4 [16]
-0.0069018374 -0.0076027983 -0.004102829 -0.0017601427 -0.094482265 -0.011346001 -0.006211708 -0.030264046
0.0 -0.07687553 0.082407676 -0.012802888 -0.027602717 0.02178413 0.02788318 0.02545348
00000000: cf28 e2bb e520 f9bb 0671 86bb 97b4 e6ba
00000010: eb7f c1bd 94e4 39bc 958b cbbb 4eec f7bc
00000020: 0000 0000 eb70 9dbd 5bc5 a83d 34c3 51bc
00000030: 181f e2bc a274 b23c 446b e43c d183 d03c

conv2d_35/bias f4 [32]
0.052891605 -0.05593745 0.004440377 0.0057761013 -0.020517403 -0.0031068372 -0.08727594 -0.013730962
-0.023346603 -0.0369417 -0.04504529 -0.07103117 0.015881369 -0.041340437 -0.04727776 -0.1011086
0.0024747073 -0.11751176 0.0051064123 0.0064960597 -0.049204394 -0.031218762 -0.04029295 -0.021827139
0.032204494 -0.06524947 -0.031129746 -0.015453308 -0.017264241 0.02148828 -0.06283686 -0.11702312
00000000: dea4 583d ab1e 65bd 9580 913b 7345 bd3b
00000010: 1d14 a8bc 149c 4bbb babd b2bd d4f7 60bc
00000020: 6041 bfbc 2e50 17bd 6981 38bd ca78 91bd
00000030: a519 823c 9754 29bd 53a6 41bd 0712 cfbd
00000040: b32e 223b 01aa f0bd b153 a73b e6dc d43b
00000050: 8c8a 49bd 7dbe ffbc 380a 25bd d4ce b2bc
00000060: dce8 033d 84a1 85bd cf03 ffbc df2f 7dbc
00000070: bd6d 8dbc 3008 b03c 9db0 80bd d1a9 efbd

conv2d_34/bias f4 [16]
-0.030125994 -0.044560675 0.11128631 0.030651648 -0.016960002 0.026541455 -0.051442146 0.025437707
-0.13896103 0.08674539 0.059670486 -0.008814994 0.0 -0.01502465 -0.07753823 0.014104201
00000000: caca f6bc 4185 36bd 14ea e33d 2a19 fb3c
00000010: b4ef 8abc 776d d93c 00b5 52bd bd62 d03c
00000020: cd4b 0ebe 91a7 b13d 0a69 743d c46c 10bc
00000030: 0000 0000 f329 76bc 5dcc 9ebd 4f15 673c

conv2d_33/bias f4 [32]
0.041993607 -0.019786302 -0.022668552 0.014179176 -0.006701614 -0.017647514 -0.015176904 -0.05521942
-0.013661931 -0.011562192 -0.100346684 -0.04506162 -0.07274884 -0.077703446 0.005509068 -0.0028416724
-0.029542362 0.003998537 -0.036002826 0.07061005 -0.08582291 0.031177223 -0.01817923 -0.032014757
-0.021072421 -0.05124217 -0.030456478 -0.0834671 -0.030057287 0.004848869 -0.091063075 0.022775289
00000000: 7d01 2c3d e216 a2bc 66b3 b9bc c64f 683c
00000010: 3699 dbbb 8591 90bc 8da8 78bc c22d 62bd
00000020: 4bd6 5fbc 596f 3dbc 9082 cdbd 8992 38bd
00000030: 58fd 94bd fc22 9fbd 6985 b43b 5a3b 3abb
00000040: d302 f2bc 2906 833b b377 13bd 009c 903d
00000050: ecc3 afbd 6067 ff3c 9cec 94bc e821 03bd
00000060: 12a0 acbc 4fe3 51bd dd7f f9bc cdf0 aabd
00000070: b33a f6bc 43e3 9e3b 477f babd 3e93 ba3c

conv2d_32/bias f4 [16]
0.06272467 -0.017495995 -0.0770471 0.015107953 -0.06941135 0.010202367 -0.116147324 -0.00088356785
-0.020666132 -0.024078483 0.0 0.037947558 0.06622999 0.097860135 0.050275646 0.089494884
00000000: cb75 803d c353 8fbc dfca 9dbd 5987 773c
00000010: 8a27 8ebd d427 273c a6de edbd 3c9f 67ba
00000020: 054c a9bc 3d40 c5bc 0000 0000 e66e 1b3d
00000030: 97a3 873d e56a c83d d6ed 4d3d 1849 b73d

hal_net_8/sequential_20/gru_12/gru_cell_12/unstack f4 [30]
0.055807814 0.046535093 0.00076324074 0.09666473 -0.060426313 0.08247976 0.041001502 -0.040217254
0.01559014 0.0446485 -0.38182628 -0.10496805 0.026817365 0.012978521 0.0870463 -0.10183803
-0.09538354 -0.35858783 -0.1758685 0.0335664 0.013753457 0.046238657 -0.10735419 -0.08013331
-0.13292146 0.04491244 -0.059633605 0.005925395 -0.016316053 0.1247288
00000000: bc96 643d 959b 3e3d 3814 483a 28f8 c53d
00000010: 9581 77bd 26eb a83d 31f1 273d d9ba 24bd
00000020: c96d 7f3c 58e1 363d bc7e c3be 7df9 d6bd
00000030: 17b0 db3c dda3 543c 5545 b23d 7590 d0bd
00000040: 7258 c3bd d398 b7be df16 34be ec7c 093d
00000050: 2e56 613c bf64 3d3d 83dc dbbd ef1c a4bd
00000060: 901c 08be 1bf6 373d 5e42 74bd d129 c23b
00000070: 3ea9 85bc d071 ff3d

hal_net_8/sequential_20/gru_12/gru_cell_12/unstack1 f4 [30]
0.055807807 0.046535015 0.0007632325 0.09666476 -0.06042638 0.08247973 0.041001506 -0.04021734
0.015590147 0.044648413 -0.3818263 -0.104967915 0.026817348 0.012978484 0.08704623 -0.10183806
-0.09538352 -0.3585878 -0.17586853 0.03356635 0.07674931 -0.0036219726 -0.042474926 -0.0182915
-0.10005118 0.023924416 -0.10389409 -0.037402414 0.029453613 0.04542299
00000000: ba96 643d 809b 3e3d ab13 483a 2cf8 c53d
00000010: a781 77bd 22eb a83d 32f1 273d f0ba 24bd
00000020: d16d 7f3c 41e1 363d bd7e c3be 6bf9 d6bd
00000030: 0eb0 db3c b5a3 543c 4b45 b23d 7990 d0bd
00000040: 6f58 c3bd d298 b7be e116 34be de7c 093d
00000050: be2e 9d3d 9e5e 6dbb 30fa 2dbd 0ed8 95bc
00000060: a2e7 ccbd 23fd c33c 6dc6 d4bd 4633 19bd
00000070: b448 f13c 750d 3a3d

hal_net_8/sequential_21/gru_13/gru_cell_13/unstack f4 [30]
0.008426724 -0.088925585 -0.042429324 -0.0017940244 -0.076300375 -0.0541493 -0.106689475 0.015930457
-0.10767112 0.015534727 -0.057302807 -0.26738748 -0.086036585 -0.023736538 -0.039799552 -0.04761114
0.11767554 -0.14618377 0.045625318 -0.06541161 -0.08012544 0.023582926 -0.06659992 0.05614998
0.07708188 0.058347683 -0.15060861 -0.0061261333 -0.11622188 0.045163244
00000000: 3e10 0a3c 9e1e b6bd 5fca 2dbd 7825 ebba
00000010: 5f43 9cbd a8cb 5dbd 0380 dabd 9780 823c
00000020: ad82 dcbd 5e85 7e3c 59b6 6abd 03e7 88be
00000030: f333 b0bd 2173 c2bc db04 23bd e603 43bd
00000040: e0ff f03d 33b1 15be 9de1 3a3d 86f6 85bd
00000050: cf18 a4bd fb30 c13c 8a65 88bd 85fd 653d
00000060: 1bdd 9d3d fbfd 6e3d 2539 1abe bbbd c8bb
00000070: bd05 eebd 18fd 383d

hal_net_8/sequential_21/gru_13/gru_cell_13/unstack1 f4 [30]
0.008426743 -0.0889256 -0.042429313 -0.0017940267 -0.07630038 -0.054149244 -0.1066895 0.015930427
-0.10767119 0.015534716 -0.057302844 -0.26738742 -0.08603662 -0.023736548 -0.03979959 -0.04761118
0.11767554 -0.14618386 0.045625318 -0.06541162 -0.0108439885 -0.0056652916 0.0128821395 0.028928623
0.013836458 -0.0024224753 -0.10079881 0.010638636 -0.056524955 0.0076929126
00000000: 5210 0a3c a01e b6bd 5cca 2dbd 8c25 ebba
00000010: 6043 9cbd 99cb 5dbd 0680 dabd 8780 823c
00000020: b682 dcbd 5285 7e3c 63b6 6abd 01e7 88be
00000030: f833 b0bd 2673 c2bc e504 23bd f103 43bd
00000040: e0ff f03d 39b1 15be 9de1 3a3d 87f6 85bd
00000050: fcaa 31bc e9a3 b9bb 9c0f 533c b8fb ec3c
00000060: 50b2 623c 64c2 1ebb 9b6f cebd ac4d 2e3c
00000070: b686 67bd d414 fc3b

hal_net_8/sequential_22/gru_14/gru_cell_14/unstack f4 [30]
-0.16206211 -0.4314587 -0.08011226 0.009086611 -0.23772523 -0.18566813 -0.021900311 -0.09506738
-0.20755842 -0.33372304 -0.025639921 -0.025726903 -0.06854333 -0.034715492 0.07265747 0.0034897886
-0.1423973 -0.14027442 -0.048236843 0.009949735 -0.09322479 -0.087544315 0.04658028 -0.039743062
0.13170037 0.1092536 0.017626395 -0.019868253 -0.056976814 0.11340149
00000000: 9cf3 25be 28e8 dcbe e611 a4bd 02e0 143c
00000010: 3e6e 73be c91f 3ebe 4868 b3bc b0b2 c2bd
00000020: 328a 54be bfdd aabe d00a d2bc 3ac1 d2bc
00000030: 7260 8cbd d531 0ebd 71cd 943d f0b4 643b
00000040: 99d0 11be 19a4 0fbe ff93 45bd 3704 233c
00000050: a4ec bebd 6f4a b3bd f7ca 3e3d 9fc9 22bd
00000060: 76dc 063e 5ac0 df3d 3b65 903c bfc2 a2bc
00000070: 8560 69bd 0a3f e83d

hal_net_8/sequential_22/gru_14/gru_cell_14/unstack1 f4 [30]
-0.16206196 -0.43145868 -0.08011221 0.009086678 -0.23772508 -0.18566817 -0.021900289 -0.09506742
-0.20755841 -0.33372307 -0.025639923 -0.025726935 -0.068543285 -0.034715466 0.07265742 0.0034898047
-0.14239718 -0.1402745 -0.048236858 0.009949809 -0.05237161 -0.04999917 0.014398284 -0.013182981
0.07692486 0.008784212 0.02868868 0.02235592 -0.004585575 0.02509323
00000000: 92f3 25be 27e8 dcbe df11 a4bd 4ae0 143c
00000010: 346e 73be cc1f 3ebe 3c68 b3bc b5b2 c2bd
00000020: 318a 54be c0dd aabe d10a d2bc 4bc1 d2bc
00000030: 6c60 8cbd ce31 0ebd 6acd 943d 35b5 643b
00000040: 91d0 11be 1ea4 0fbe 0394 45bd 8604 233c
00000050: 9d83 56bd eecb 4cbd c8e6 6b3c 6efd 57bc
00000060: c88a 9d3d a8eb 0f3c 8604 eb3c c323 b73c
00000070: 9742 96bb 5190 cd3c

hal_net_8/sequential_20/gru_12/gru_cell_12/MatMul_1 f4 [30, 10]
-0.0062590837 -0.26711476 -0.033580292 0.0062609836 -0.45876858 0.13466208 0.07717784 -0.097463384
0.2996335 0.062975354 -0.11856787 0.2456497 0.16987854 -0.10320614 -0.17155927 0.010173554
0.4181365 -0.02157232 0.09746966 0.08362567 -0.3781327 0.034100033 -0.08977643 -0.0033727486
0.14787757 0.040317178 0.17519607 0.13233632 -0.16211154 -0.06819357 0.370653 0.03718687
-0.35054907 0.010088546 0.040373117 0.02753111 0.32530648 0.19813406 0.026445024 -0.3779585
0.012418188 0.079609096 -0.22897576 -0.017528243 0.06374137 0.0993134 -0.13780192 -0.17057358
0.19349775 0.2534405 0.13031563 0.15871984 -0.026675627 0.23376998 -0.13169393 0.040820517
0.054884028 -0.2791524 0.26945308 -0.20955294 -0.15439771 0.22792345 -0.16315481 0.10704731
0.071024336 -0.21592045 -0.223466 -0.25650498 0.29126734 0.15614569 -0.016603498 -0.028145375
0.07811144 0.40380907 -0.22065873 -0.16683285 0.36349124 -0.09968414 -0.16702634 -0.016195368
-0.04638688 0.07411695 0.08788103 -0.30505505 -0.25788373 0.16676176 -0.13390899 -0.08021519
0.06640056 -0.30162632 -0.19662575 0.33250841 -0.03649431 -0.38347575 0.035344467 -0.35846615
0.1774136 -0.124378 0.13874431 0.013360819 -0.26173946 0.04527065 0.0602562 0.00028115022
-0.0037739873 0.27917197 0.04502756 0.23066756 0.15752225 0.20021503 -0.23182365 -0.09217465
-0.038452834 -0.036110476 0.13111284 0.07547635 -0.14500786 -0.34727666 -0.29721677 -0.023652619
0.021717299 0.26662445 -0.30809364 -0.04511483 0.03839739 -0.09368245 0.070211954 0.24670145
-0.04609843 0.12847614 -0.003533332 -0.25219035 -0.0073845307 -0.08806655 0.02720912 0.03587246
0.25727835 -0.13367823 -0.05908014 0.1485913 0.17516914 0.23990467 0.119752854 -0.33793813
-0.23413092 0.13956861 -0.0030087046 -0.19799848 -0.2290416 -0.031290017 0.069131576 -0.4442504
-0.2538913 -0.16431743 0.0044754483 -0.18454678 -2.789311e-06 -0.039706357 0.11269731 0.2645385
-0.011463445 -0.085054554 -0.004763238 -0.15311708 0.05747064 0.0060782284 -0.09956855 -0.006415194
0.30521527 -0.08546775 -0.07533894 -0.17015783 -0.19931073 -0.0779235 -0.08245589 0.2737043
0.0545692 0.009290605 -0.28588343 0.07021809 0.20037448 -0.10279995 0.0006038258 -0.0031289277
0.21228814 -0.33654836 0.13636675 0.06560767 -0.033255965 0.059314396 -0.28032157 0.12340998
-0.24150036 0.23238903 0.09155986 -0.085403286 0.12995486 -0.29983792 -0.17451695 -0.2322216
0.30602494 0.23709667 -0.2296716 0.04755934 0.14971508 0.29068446 -0.04005786 0.102257006
-0.11059509 0.20762786 0.17310454 0.0756365 0.1455655 0.042358648 0.12522794 0.39025363
0.22203505 -0.2745772 0.04212626 0.094284184 0.05396186 -0.2649945 -0.017753024 -0.25514078
0.023978226 -0.14374015 0.28928995 -0.08359664 0.13585025 -0.15760452 -0.35034323 -0.11933941
-0.43631423 -0.051108807 -0.019613594 0.27322835 0.136215 -0.008392196 0.10736252 -0.12622681
-0.0861681 0.05415567 -0.053185966 0.25074238 -0.21077749 0.018791165 0.122882366 0.09199846
0.15813667 0.3182573 -0.03496921 -0.10198795 0.05613483 -0.06367276 0.39822122 0.15356757
00000000: 0019 cdbb 44c3 88be 7d8b 09bd f028 cd3b
00000010: b7e3 eabe dbe4 093e 6a0f 9e3d e29a c7bd
00000020: 9069 993e 39f9 803d b6d3 f2bd 988b 7b3e
00000030: a4f4 2d3e be5d d3bd 3cad 2fbe faae 263c
00000040: fd15 d63e 6fb8 b0bc 2c9e c73d ef43 ab3d
00000050: 9c9a c1be 7aac 0b3d b4dc b7bd 5509 5dbb
00000060: 386d 173e a023 253d 9966 333e 2c83 073e
00000070: 9100 26be 12a9 8bbd 3bc6 bd3e 4251 183d
00000080: 2b7b b3be 6e4a 253c 485e 253d ec88 e13c
00000090: 928e a63e a8e3 4a3e 3ca3 d83c c783 c1be
000000a0: a875 4b3c 180a a33d 9f78 6abe 6497 8fbc
000000b0: d68a 823d d364 cb3d f21b 0dbe d7aa 2ebe
000000c0: 4624 463e f4c2 813e 7671 053e 7487 223e
000000d0: d886 dabc 6661 6f3e c6da 06be 6a33 273d
000000e0: 13ce 603d 10ed 8ebe c1f5 893e 0c95 56be
000000f0: 6f1a 1ebe c464 693e 0e12 27be 9f3b db3d
00000100: 3575 913d 401a 5dbe 45d4 64be 9f54 83be
00000110: fe20 953e a8e4 1f3e 0f04 88bc 2191 e6bc
00000120: e4f8 9f3d 10c0 ce3e 5df4 61be 3bd6 2abe
00000130: 861b ba3e 3327 ccbd f408 2bbe 26ac 84bc
00000140: 2b00 3ebd a1ca 973d f8fa b33d 2d30 9cbe
00000150: 5609 84be 98c3 2a3e 701f 09be dd47 a4bd
00000160: 04fd 873d c46e 9abe 4358 49be 8b3e aa3e
00000170: 0f7b 15bd ef56 c4be 5cc5 103d e088 b7be
00000180: e9ab 353e e5b9 febd fd12 0e3e 56e7 5a3c
00000190: b702 86be b86d 393d 35cf 763d 5867 9339
000001a0: 0055 77bb a1ef 8e3e d26e 383d 1e34 6c3e
000001b0: 834d 213e 2b05 4d3e 2e63 6dbe 10c6 bcbd
000001c0: b880 1dbd 94e8 13bd 7242 063e 5893 9a3d
000001d0: f17c 14be 3fce b1be cc2c 98be 23c3 c1bc
000001e0: 7ae8 b13c 0083 883e 73be 9dbe 54ca 38bd
000001f0: 9546 1d3d 96dc bfbd 49cb 8f3d 4e9f 7c3e
00000200: b5d1 3cbd 408f 033e 798f 67bb 181f 81be
00000210: eff9 f1bb 3c5c b4bd a9e5 de3c 00ef 123d
00000220: fdb9 833e f2e2 08be 04fe 71bd 5128 183e
00000230: 8a5f 333e 92a9 753e fc40 f53d 3a06 adbe
00000240: 04c0 6fbe 13eb 0e3e b02d 45bb 1dc0 4abe
00000250: e289 6abe f629 00bd db94 8d3d ca74 e3be
00000260: 0afe 81be d442 28be c8a6 923b d5f9 3cbe
00000270: 0030 3bb6 22a3 22bd d9cd e63d 9771 873e
00000280: 2cd1 3bbc 1531 aebd f014 9cbb b9ca 1cbe
00000290: 5566 6b3d e02b c73b 99ea cbbd 8c36 d2bb
000002a0: 2d45 9c3e b709 afbd 4d4b 9abd db3d 2ebe
000002b0: 1d18 4cbe 5b96 9fbd a2de a8bd f822 8c3e
000002c0: f483 5f3d 9f37 183c 505f 92be 81ce 8f3d
000002d0: f82e 4d3e c888 d2bd 104a 1e3a b20e 4dbb
000002e0: 1062 593e 1150 acbe baa3 0b3e 505d 863d
000002f0: 6837 08bd a7f3 723d 4f86 8fbe 5fbe fc3d
00000300: df4b 77be 64f7 6d3e bc83 bb3d ebe7 aebd
00000310: e312 053e 5b84 99be 92b4 32be 80cb 6dbe
00000320: 4daf 9c3e 78c9 723e 082f 6bbe 95cd 423d
00000330: e94e 193e 98d4 943e b613 24bd 1f6c d13d
00000340: ae7f e2bd 669c 543e 5142 313e 4fe7 9a3d
00000350: 1f0f 153e 4380 2d3d c13b 003e 53cf c73e
00000360: 285d 633e 6295 8cbe 968c 2c3d 1118 c13d
00000370: 1c07 5d3d 5cad 87be ca6e 91bc d0a1 82be
00000380: fc6d c43c 9e30 13be d01d 943e b734 abbd
00000390: 541c 0b3e 1463 21be 3060 b3be 3868 f4bd
000003a0: 9464 dfbe 7857 51bd b0ac a0bc 96e4 8b3e
000003b0: f27b 0b3e 6c7f 09bc e2e0 db3d 9a41 01be
000003c0: e778 b0bd 56d2 5d3d 87d9 59bd 4e61 803e
000003d0: 0ed6 57be eeef 993c c0a9 fb3d b069 bc3d
000003e0: 94ee 213e 9ff2 a23e e03b 0fbd 0fdf d0bd
000003f0: a3ed 653d dd66 82bd a7e3 cb3e d140 1d3e

hal_net_8/sequential_20/gru_12/gru_cell_12/MatMul f4 [30, 736]
0.0011383484 0.12551565 0.19534382 0.12856852 0.07584453 0.009156504 -0.10003792 -0.0038074153
0.08512187 0.024472836 0.038676847 -0.04659334 0.012281675 -0.03929909 0.122846834 0.22150572
0.008758066 -0.005671119 0.009138978 0.046524197 -0.08554987 -0.074020736 0.02620339 0.03322087
-0.009185781 -0.08265355 0.12812762 -0.26515824 -0.112586774 -0.17241724 0.0046364116 0.070194304
-0.1408881 -0.07608116 -0.028242223 0.18825105 0.099692956 -0.026610078 0.010545843 0.008326179
0.10623062 0.08417925 0.22144249 0.0131255025 -0.015956532 -0.10869858 -0.18003435 0.3064384
0.02815074 -0.22634856 -0.06068138 0.06014809 -0.037954565 -0.10936708 0.021085966 0.0029533985
-0.17149317 -0.014235838 0.012894903 -0.18826708 -0.11267056 0.35075727 -0.009308688 -0.12789652
0.096504405 -0.0046369336 0.2704467 -0.069091894 -0.01417856 -0.10584521 -0.15925156 -0.10461322
-0.06335627 0.018559681 0.2282173 0.017335357 -0.08901591 -0.114427224 -0.0009372301 0.17011563
-0.092675716 -0.18637075 -0.123257086 -0.02691989 -0.1879009 -0.020796232 -0.037389487 0.11944026
-0.2240302 -0.08071388 -0.0041168407 -0.1396706 -0.020902224 0.117375344 -0.07698657 -0.2995853
0.022203818 -0.017245062 0.0023201625 -0.16796802 0.017390843 0.05509517 -0.03818359 -0.0844589
0.068810105 -0.013574285 -0.010041787 0.06824584 -0.08572759 -0.1642322 -0.017527848 0.23359753
0.054617498 0.0057527176 -0.082380585 0.00836357 -0.1857649 -0.17221366 -0.1713763 0.014275955
-0.13688576 0.039345387 0.056206286 -0.110418566 0.031075383 -0.12122394 -0.1150249 -0.045198213
0.07902149 0.031236256 0.07030736 0.09251524 -0.09833858 -0.21571341 -0.019804964 -0.13529405
0.19075194 0.090296715 0.20865779 0.05675974 -0.30170497 -0.08678709 0.15100382 0.27160522
-0.08582852 0.048201624 -0.07125318 -0.10069455 -0.055872407 -0.093768276 -0.036186233 0.06982594
-0.17405763 -0.08376399 0.18732455 -0.13461967 -0.08230294 0.09660654 -0.11989958 0.0868995
0.1482915 0.06322941 -0.033356298 0.30957633 0.09052762 -0.019840397 0.18663089 -0.06577079
0.07449613 0.36152017 0.30177075 -0.08234921 0.08390517 -0.10723178 0.13461858 0.2093266
0.047833912 -0.07770572 -0.095467106 -0.08216784 0.17330115 0.2705504 -0.047629397 -0.043560132
-0.17497413 -0.060156584 0.12505159 -0.13975543 0.03564437 0.07586904 -0.08136086 -0.04988074
-0.022775333 0.2820933 -0.072548226 0.27640536 -0.10432209 0.045769416 -0.15240684 -0.20242332
0.1951212 0.17960152 0.2331237 -0.064133 0.16830839 -0.054088432 0.012398351 0.12365034
-0.022091622 -0.00028092705 -0.08139957 0.09785443 -0.10203342 0.09957496 -0.0972579 0.0016848132
-0.24752395 -0.02382093 -0.027522055 0.068901636 -0.03786622 0.21444447 -0.045663018 0.0114393
0.0717922 0.13630038 0.14932337 0.034522872 0.19304906 -0.060841426 0.13803113 -0.012835039
0.22132158 -0.040788945 0.029565774 -0.09145746 -0.07781917 -0.06624565 0.1255499 0.3841959
0.006666603 0.09572185 -0.06675425 0.10651692 -0.1461934 -0.04060659 -0.17199077 -0.019191017
-0.13298315 0.0047584698 -0.032854818 -0.008960571 0.03715634 -0.004268629 0.1132532 0.12320452
00000000: a234 953a 2d87 003e 3608 483e 77a7 033e
00000010: 6054 9b3d 2905 163c aee0 ccbd d485 79bb
00000020: 6054 ae3d 427b c83c 9d6b 1e3d a8d8 3ebd
00000030: 1439 493c 15f8 20bd 1f97 fb3d 65d2 623e
00000040: fe7d 0f3c cbd4 b9bb a7bb 153c 2890 3e3d
00000050: c534 afbd 2f98 97bd 7ea8 d63c 9b12 083d
00000060: f57f 16bc 4446 a9bd e333 033e d2c2 87be
00000070: e593 e6bd 258e 30be 0aed 973b 08c2 8f3d
00000080: f844 10be 70d0 9bbd 3c5c e7bc e2c4 403e
00000090: d22b cc3d 61fd d9bc 79c8 2c3c 876a 083c
000000a0: 708f d93d 2c66 ac3d d2c1 623e 590c 573c
000000b0: 46b7 82bc 5c9d debd ed5a 38be 7ee5 9c3e
000000c0: 619c e63c ebc7 67be 0a8d 78bd d85d 763d
000000d0: 3f76 1bbd d9fb dfbd 7abc ac3c ce8d 413b
000000e0: e89b 2fbe 6f3d 69bc 2545 533c 16c9 40be
000000f0: d3bf e6bd 7596 b33e 7883 18bc 4ef7 02be
00000100: 1aa4 c53d 6bf1 97bb fd77 8a3e 0d80 8dbd
00000110: 314d 68bc 60c5 d8bd d712 23be 753f d6bd
00000120: efc0 81bd 790a 983c ccb1 693e e102 8e3c
00000130: f94d b6bd d258 eabd 73b0 75ba cb32 2e3e
00000140: c4cc bdbd f9d7 3ebe 366e fcbd 1a87 dcbc
00000150: 1869 40be dc5c aabc b825 19bd 189d f43d
00000160: 2c68 65be 524d a5bd 90e6 86bb cf05 0fbe
00000170: 243b abbc 7c62 f03d 23ab 9dbd 3f63 99be
00000180: c8e4 b53c 8445 8dbc de0d 183b cfff 2bbe
00000190: 3e77 8e3c 79ab 613d 6566 1cbd caf8 acbd
000001a0: 50ec 8c3d ae66 5ebc 4f86 24bc 7ac4 8b3d
000001b0: f291 afbd 7c2c 28be 9096 8fbc 3134 6f3e
000001c0: 99b6 5f3d 4b81 bc3b 27b7 a8bd 5b07 093c
000001d0: 2739 3ebe c758 30be 457d 2fbe b2e5 693c
000001e0: c82b 0cbe a128 213d 9038 663d 2123 e2bd
000001f0: cd91 fe3c 4244 f8bd 2d92 ebbd c321 39bd
00000200: 05d6 a13d 2de3 ff3c 4efd 8f3d a178 bd3d
00000210: bd65 c9bd fae3 5cbe 053e a2bc 868a 0abe
00000220: 7a54 433e 7ced b83d 63aa 553e e77c 683d
00000230: 1379 9abe 6ebd b1bd bfa0 1a3e d70f 8b3e
00000240: ddc6 afbd 116f 453d 30ed 91bd f238 cebd
00000250: 77da 64bd 9509 c0bd 0438 14bd e700 8f3d
00000260: 2a3c 32be 748c abbd 02d2 3f3e bdd9 09be
00000270: 728e a8bd a6d9 c53d e98d f5bd 5df8 b13d
00000280: bad9 173e 6c7e 813d 9da0 08bd ca80 9e3e
00000290: 8b66 b93d 5488 a2bc 2b1c 3f3e d6b2 86bd
000002a0: 6d91 983d 2c19 b93e b281 9a3e b4a6 a8bd
000002b0: 79d6 ab3d 569c dbbd 74d9 093e b659 563e
000002c0: 7eed 433d 2d24 9fbd 4284 c3bd 9d47 a8bd
000002d0: db75 313e 9585 8a3e 0b17 43bd 1c6c 32bd
000002e0: 6b2c 33be c066 76bd 860d 003e 0c1c 0fbe
000002f0: d5ff 113d 3a61 9b3d 86a0 a6bd bf4f 4cbd
00000300: 5693 babc 886e 903e 2a94 94bd 0185 8d3e
00000310: d2a6 d5bd b678 3b3d 8a10 1cbe 0f48 4fbe
00000320: dacd 473e 76e9 373e fbb7 6e3e 2a58 83bd
00000330: 0959 2c3e d58b 5dbd 7422 4b3c 643c fd3d
00000340: 7df9 b4bc 6449 93b9 d1b4 a6bd e767 c83d
00000350: e6f6 d0bd f5ed cb3d 262f c7bd f3d4 dc3a
00000360: eb76 7dbe 1c24 c3bc ef75 e1bc 4d1c 8d3d
00000370: 9c19 1bbd 5597 5b3e 2509 3bbd e76b 3b3c
00000380: ca07 933d 5492 0b3e 3ae8 183e db67 0d3d
00000390: a7ae 453e dc34 79bd 0858 0d3e 0e4a 52bc
000003a0: 20a2 623e 4f12 27bd ec33 f23c 0c4e bbbd
000003b0: a85f 9fbd cdab 87bd 2790 003e 53b5 c43e
000003c0: 8573 da3b d109 c43d 74b6 88bd 8b25 da3d
000003d0: b9b3 15be 1953 26bd 591e 30be 7b36 9dbc
000003e0: bc2c 08be f0ec 9b3b c692 06bd 5ccf 12bc
000003f0: 3f31 183d dbdf 8bbb 4bf1 e73d a752 fc3d

hal_net_8/sequential_21/gru_13/gru_cell_13/MatMul_1 f4 [30, 10]
-0.121614456 0.5510122 0.03024104 -0.22236271 0.18429673 -0.08189694 0.25670743 -0.020447094
0.20697856 -0.08994836 0.04052132 -0.202117 0.1897287 -0.095431395 0.17828089 0.033464234
0.15941441 0.122191586 0.10150727 -0.26390067 -0.14645475 -0.16195273 0.4863803 0.025436932
-0.13477825 -0.041818965 -0.109563984 0.04436278 0.008316625 -0.17827973 -0.2419464 0.20733182
0.025985427 0.24441305 -0.35593364 0.1853688 0.11089632 0.07483894 -0.33380008 0.09958121
-0.24642898 0.042579167 -0.097010925 0.040405605 0.0077079125 0.00012433901 -0.13019007 -0.038219623
0.20712706 0.062222004 -0.14881502 0.03801677 0.08758865 0.10736062 0.025758166 0.2979089
-0.55354255 0.1660297 0.2085877 0.008294893 0.31003973 0.08539422 -0.11737466 -0.30765823
0.17177466 0.0130960345 -0.2453269 -0.044379115 -0.17474458 -0.016328862 0.082792126 0.0959832
-0.1051987 -0.13226852 -0.21281913 0.04438954 -0.061876718 -0.27339315 -0.22638656 0.0612455
0.49503455 0.2168829 -0.042474177 0.039173406 0.1323581 0.28064057 -0.12884554 0.042838253
0.11729885 -0.13473444 -0.15728672 0.024484232 -0.18897763 0.11057061 0.06717488 -0.06617025
0.18109974 -0.10937301 -0.086705685 -0.68522006 0.1729946 -0.08566679 -0.029319141 0.49525338
-0.050867938 -0.008754932 0.14643702 0.14815874 -0.24690989 -0.0424697 -0.16485718 0.17333627
0.20962483 0.20981635 0.28715667 0.028324334 -0.17077754 0.0862604 -0.18059702 0.005938653
0.090458445 0.29623237 0.1084979 0.2702542 0.11478821 -0.14226124 0.0264939 0.009629872
-0.1679842 0.055583175 -0.23075281 0.13126516 -0.0050005717 0.06439488 -0.1233754 0.06508021
0.123219565 0.14729801 0.42044964 -0.062252127 -0.021842174 -0.3874808 -0.034516715 -0.04748957
0.22031929 0.060213994 0.12676169 0.06199168 -0.020815227 0.12570451 -0.10727325 -0.054900445
-0.40209955 -0.04587035 -0.2066042 0.15554765 -0.27163917 -0.24120949 -0.11117411 -0.3167158
0.11787218 0.020676825 0.17593618 0.08090784 -0.3177638 0.22336726 -0.052866954 -0.11447364
0.10927533 -0.010734645 0.22480437 -0.023697414 0.18009067 0.19421941 0.04023037 0.34089494
0.23348236 -0.37282938 0.17081398 0.15202281 -0.23266958 0.18628478 0.10438413 -0.25844625
-0.114626825 0.24870974 0.08989441 -0.008435966 -0.24327047 0.21141149 0.04539978 -0.08271031
0.01897397 -0.16172098 -0.3396316 0.10950462 -0.04688311 0.1944428 -0.02358463 -0.19045977
-0.093367994 -0.112197906 0.37818316 -0.36181563 -0.008478982 0.06435863 0.10770405 -0.13868272
-0.15162285 -0.10767411 -0.038704373 -0.109639555 0.09013196 -0.08870441 -0.026899032 0.12595192
-0.005061295 0.2856367 0.037588987 -0.10073044 0.08964954 0.2713101 0.32921696 0.10200799
-0.068822205 -0.17605378 -0.19057523 -0.18187538 0.012128558 -0.27446827 -0.079216585 -0.046260726
-0.04713492 0.11025303 0.017349336 -0.32442787 -0.06073603 0.109052844 -0.108987436 -0.00037173415
-0.29757467 -0.19943675 -0.013822791 0.15932333 0.17084028 -0.08221439 -0.14395738 -0.5081957
0.06854127 0.12098031 -0.07123463 -0.037050527 -0.07544708 0.09256813 0.107930265 0.4223473
00000000: 0011 f9bd 230f 0d3f 0fbc f73c 0db3 63be
00000010: 48b8 3c3e 95b9 a7bd 286f 833e aa80 a7bc
00000020: 30f2 533e d936 b8bd aff9 253d c2f7 4ebe
00000030: 3e48 423e 8971 c3bd 448f 363e cb11 093d
00000040: 883d 233e 953f fa3d 0be3 cf3d fd1d 87be
00000050: 3cf8 15be f0d6 25be d706 f93e 1d61 d03c
00000060: 4f03 0abe 5d4a 2bbd 1563 e0bd bfb5 353d
00000070: 7442 083c f68e 36be ccc0 77be cb4e 543e
00000080: 64df d43c 6a47 7a3e ef3c b6be 52d1 3d3e
00000090: 9c1d e33d 2845 993d d8e7 aabe 3cf1 cb3d
000000a0: e157 7cbe 7e67 2e3d aaad c6bd 5980 253d
000000b0: a892 fc3b 0061 0239 8c50 05be 2e8c 1cbd
000000c0: 1e19 543e 80dc 7e3d f762 18be 79b7 1b3d
000000d0: ae61 b33d e2df db3d ca02 d33c 8487 983e
000000e0: f7b4 0dbf b103 2a3e 0498 553e 4ee7 073c
000000f0: 87bd 9e3e 2ae3 ae3d 2062 f0bd 6185 9dbe
00000100: b2e5 2f3e c090 563c fa36 7bbe e0c6 35bd
00000110: 3ef0 32be 1bc4 85bc eb8e a93d d792 c43d
00000120: 6b72 d7bd 6671 07be 42ed 59be ced1 353d
00000130: 7172 7dbd 30fa 8bbe e1d1 67be 90dc 7a3d
00000140: 2b75 fd3e 8d16 5e3e 67f9 2dbd 4b74 203d
00000150: e288 073e 1fb0 8f3e 16f0 03be 2a77 2f3d
00000160: 613a f03d d3f7 09be c50f 21be 2893 c83c
00000170: 5a83 41be d872 e23d fc92 893d 4584 87bd
00000180: 3672 393e f5fe dfbd c092 b1bd 956a 2fbf
00000190: 7f25 313e 1272 afbd b22e f0bc da91 fd3e
000001a0: e65a 50bd d970 0fbc 96f3 153e edb6 173e
000001b0: f2d5 7cbe b5f4 2dbd 52d0 28be 107f 313e
000001c0: e4a7 563e 19da 563e 3306 933e 6f08 e83c
000001d0: 4fe0 2ebe 4ba9 b03d 6dee 38be 0899 c23b
000001e0: 4742 b93d c5ab 973e 2634 de3d c25e 8a3e
000001f0: 1516 eb3d eeac 11be bc09 d93c 9cc6 1d3c
00000200: 0d04 2cbe 2fab 633d 774a 6cbe 606a 063e
00000210: d6db a3bb 76e1 833d 3eac fcbd c648 853d
00000220: 8a5a fc3d 4ad5 163e 2d45 d73e 16fc 7ebd
00000230: 5cee b2bc e263 c6be 6661 0dbd 6c84 42bd
00000240: 619b 613e f3a2 763d d1cd 013e fdea 7d3d
00000250: b284 aabc afb8 003e 14b2 dbbd 4adf 60bd
00000260: fedf cdbe 8ce2 3bbd 0d90 53be e247 1f3e
00000270: 4a14 8bbe 9fff 76be 40af e3bd 9328 a2be
00000280: f866 f13d 7262 a93c 9d28 343e 02b3 a53d
00000290: f0b1 a2be 63ba 643e 058b 58bd 2871 eabd
000002a0: bfcb df3d 5de0 2fbc 1e33 663e 1421 c2bc
000002b0: b069 383e 74e1 463e 9ac8 243d c889 ae3e
000002c0: 0016 6f3e 7ee3 bebe dce9 2e3e deab 1b3e
000002d0: ef40 6ebe 70c1 3e3e 59c7 d53d 1153 84be
000002e0: 78c1 eabd c4ad 7e3e 8f1a b83d 0237 0abc
000002f0: e51b 79be 417c 583e 1ff5 393d 0664 a9bd
00000300: 4d6f 9b3c 2f9a 25be 31e4 adbe f543 e03d
00000310: 8108 40bd 031c 473e 8e34 c1bc e307 43be
00000320: b837 bfbd 04c8 e5bd 39a1 c13e e63f b9be
00000330: 6eeb 0abc 75ce 833d f193 dc3d d802 0ebe
00000340: 0543 1bbe 3e84 dcbd 7a88 1ebd b48a e0bd
00000350: 1b97 b83d a8aa b5bd 5c5b dcbc 8af9 003e
00000360: 38d9 a5bb f93e 923e e9f6 193d c34b cebd
00000370: 2e9a b73d 28e9 8a3e 208f a83e 91e9 d03d
00000380: a8f2 8cbd 7147 34be 2726 43be 8a3d 3abe
00000390: dcb6 463c 1b87 8cbe 4e3c a2bd e37b 3dbd
000003a0: 8c10 41bd 57cc e13d 3220 8e3c 691b a6be
000003b0: 58c6 78bd 1957 df3d ce34 dfbd 50e5 c2b9
000003c0: b55b 98be 2639 4cbe fd78 62bc a825 233e
000003d0: c1f0 2e3e 0560 a8bd 9069 13be 1d19 02bf
000003e0: 5e5f 8c3d 86c4 f73d 76e3 91bd 4bc2 17bd
000003f0: 0084 9abd 5c94 bd3d 8b0a dd3d e83d d83e

hal_net_8/sequential_21/gru_13/gru_cell_13/MatMul f4 [30, 672]
-0.44639897 -0.20755735 0.15221915 -0.16369167 0.19169962 0.26563308 -0.15225752 0.13710693
-0.16276501 -0.0695147 -0.21763472 0.047418 -0.46900907 -0.0859107 0.03566096 0.010182294
-0.010650273 -0.094961554 -0.061051022 0.3081584 -0.011889743 0.062142104 0.3167572 0.12347584
-0.0013251975 -0.08154444 -0.2672215 0.28989276 0.08990384 -0.1398215 -0.20679398 -0.11468173
-0.04541599 -0.14024764 0.27635506 -0.0723675 -0.015903188 0.1725671 -0.08910568 0.17235081
-0.052705385 0.045317333 -0.06911915 -0.14634116 -0.628729 0.119640015 0.13712735 0.020412307
0.13348106 -0.097939655 -0.13805199 0.28007042 0.12706643 -0.026656084 0.2913883 0.0939666
0.03265145 0.068916574 -0.26114067 0.33974275 -0.05574376 -0.10094286 -0.045532823 -0.104847185
-0.3131274 -0.26282954 0.20197167 0.091882296 -0.052808937 0.23285063 0.01693736 0.05596624
0.08951279 0.18135872 -0.097492225 0.24648595 -0.5343905 0.17739195 0.27999198 -0.015953695
-0.0249623 0.012351861 -0.031531036 0.37315786 0.17219558 0.007084488 0.20236462 -0.06947478
0.082662195 0.3095505 -0.39501715 0.20994668 0.03827529 -0.07477177 0.026725467 -0.34076527
-0.25025403 -0.25001338 0.3860623 0.08780485 -0.0060193897 -0.06817811 0.03808428 0.11730365
0.15146753 0.14485449 -0.019780444 0.014526653 -0.59558177 0.16000982 0.29641646 -0.19532105
0.07557223 0.09320157 -0.08646092 0.367142 0.055413015 0.09193307 0.22398967 0.018802607
-0.29895237 0.16696249 -0.29678786 0.09703705 0.20451146 -0.2224323 -0.027805194 0.05894639
-0.14660273 -0.08979143 0.21358402 0.16997305 0.041338008 -0.026925988 0.05028698 0.17588247
-0.06501475 0.12815884 0.047919452 0.08123797 -0.46834567 -0.039278965 0.08792292 -0.26784775
0.07147717 -0.22915205 0.025070839 0.35347334 0.004500329 -0.027311822 0.2417626 -0.1409327
-0.2019284 -0.051312815 -0.28548726 0.401298 0.072010644 -0.116791174 0.023916323 -0.3886513
-0.24991073 -0.077288926 0.3016454 -0.075377814 0.22954603 -0.1251338 0.12718579 0.1936778
-0.09384693 0.14672962 -0.07393343 0.0033008633 -0.48756176 0.15247864 0.094662 -0.13579975
-0.028251493 -0.11278248 -0.07731092 0.42014778 0.07245977 0.044596653 0.24640672 0.049211018
-0.007983965 0.13906857 -0.27746 0.14781596 -0.02130776 -0.16602017 0.00925773 -0.014475398
0.0069639976 0.028253458 0.28071034 0.096550494 0.24609695 -0.13175362 0.0753653 0.2815166
0.08887441 0.29036936 0.0014660218 -0.12423976 -0.58345467 0.35623032 0.19196585 -0.17954111
0.047048323 -0.005135094 -0.08966774 0.43139297 0.11506096 0.07828784 0.20486468 -0.0058171507
-0.12510578 0.18483597 -0.34207702 0.15590172 0.09273045 -0.20170422 0.05248728 0.13350469
-0.19915171 -0.13493548 0.3302037 -0.12768774 0.14198893 -0.028322302 0.12246997 0.16042541
-0.09787905 0.292497 0.012441702 -0.21447031 -0.5202557 0.36117977 0.18980113 0.15871447
0.09724236 0.15613516 -0.046051383 0.4989544 0.18330161 0.31350634 0.335789 -0.09955597
-0.26244873 0.16533493 -0.041831564 0.18112965 0.25262898 -0.11877747 0.14843388 -0.13552418
00000000: 688e e4be ea89 54be 56df 1b3e ca9e 27be
00000010: e84c 443e 0f01 883e 65e9 1bbe c265 0c3e
00000020: dfab 26be b95d 8ebd a3db 5ebe 6039 423d
00000030: f521 f0be f3f1 afbd 3a11 123d a3d3 263c
00000040: 7c7e 2ebc 347b c2bd a310 7abd f0c6 9d3e
00000050: 32cd 42bc b888 7e3d 002e a23e e7e0 fc3d
00000060: 40b2 adba c500 a7bd 42d1 88be d36c 943e
00000070: 811f b83d 5e2d 0fbe cdc1 53be 41de eabd
00000080: 1e06 3abd 149d 0fbe 697e 8d3e 6935 94bd
00000090: 6747 82bc 6eb5 303e 0a7d b6bd bb7c 303e
000000a0: 9ae1 57bd ab9e 393d 578e 8dbd 75da 15be
000000b0: 62f4 20bf d305 f53d 1d6b 0c3e b637 a73c
000000c0: 42af 083e 9694 c8bd 805d 0dbe 6465 8f3e
000000d0: b41d 023e dc5d dabc d930 953e 9071 c03d
000000e0: 87bd 053d 2224 8d3d 3bb4 85be c3f2 ad3e
000000f0: 9253 64bd 21bb cebd a080 3abd 1fba d6bd
00000100: 3c52 a0be 9891 86be a9d1 4e3e c92c bc3d
00000110: 2f4e 58bd 6570 6e3e 38c0 8a3c db3c 653d
00000120: 7b52 b73d 1ab6 393e 01aa c7bd d066 7c3e
00000130: d1cd 08bf 3ca6 353e 1c5b 8f3e 53b1 82bc
00000140: bd7d ccbc 765f 4a3c b026 01bd 8c0e bf3e
00000150: 0a54 303e fe24 e83b ac38 4f3e cb48 8ebd
00000160: cc4a a93d 677d 9e3e b03f cabe 43fc 563e
00000170: 8dc6 1c3d f121 99bd 5eef da3c c978 aebe
00000180: 4c21 80be c101 80be f5a9 c53e 07d3 b33d
00000190: 4d3e c5bb f7a0 8bbd 43fe 1b3d e53c f03d
000001a0: 4e1a 1b3e bc54 143e 990a a2bc 3301 6e3c
000001b0: 0c78 18bf 9dd9 233e e6c3 973e 3e02 48be
000001c0: 9dc5 9a3d 77e0 be3d 6c12 b1bd 09fa bb3e
000001d0: c2f8 623d 6847 bc3d 8c5d 653e ed07 9a3c
000001e0: 4910 99be 37f8 2a3e 94f4 97be 5cbb c63d
000001f0: 746b 513e 4bc5 63be b8c7 e3bc c571 713d
00000200: 071f 16be 92e4 b7bd c5b5 5a3e 6a0d 2e3e
00000210: 0b52 293d e493 dcbc b8f9 4d3d 891a 343e
00000220: 7426 85bd 123c 033e 3047 443d 1860 a63d
00000230: 01cb efbe fbe2 20bd ef10 b43d 5723 89be
00000240: 9f62 923d d6a6 6abe 5c61 cd3c 75fa b43e
00000250: 7f77 933b 0bbd dfbc 9d90 773e a950 10be
00000260: 52c6 4ebe 632d 52bd 632b 92be ee76 cd3e
00000270: 517a 933d 3630 efbd 2aec c33c 4efd c6be
00000280: 99e8 7fbe a849 9ebd 4471 9a3e af5f 9abd
00000290: 1d0e 6b3e 1323 00be fe3c 023e 7953 463e
000002a0: d232 c0bd 4a40 163e 696a 97bd 4c53 583b
000002b0: b2a1 f9be 5c23 1c3e 27de c13d 170f 0bbe
000002c0: ad6f e7bc 80fa e6bd 3055 9ebd 9c1d d73e
000002d0: ca65 943d fbaa 363d 0b52 7c3e 7e91 493d
000002e0: 2dcf 02bc fe67 0e3e 3d0f 8ebe 115d 173e
000002f0: 9d8d aebc 3101 2abe bcad 173c 382a 6dbc
00000300: 3f32 e43b cc73 e73c 44b9 8f3e 44bc c53d
00000310: d700 7c3e 6cea 06be 1f59 9a3d f222 903e
00000320: c903 b63d 4bab 943e 8727 c03a 6a71 febd
00000330: 495d 15bf d263 b63e b292 443e a0d9 37be
00000340: beb5 403d 4a44 a8bb b8a3 b7bd 8adf dc3e
00000350: 15a5 eb3d 6055 a03d 0cc8 513e cc9d bebb
00000360: bb1b 00be a445 3d3e b824 afbe b3a4 1f3e
00000370: 76e9 bd3d 8d8b 4ebe e7fc 563d 74b5 083e
00000380: 6dee 4bbe 872c 0abe 7610 a93e 93c0 02be
00000390: 8c65 113e 2c04 e8bc 89d1 fa3d 8f46 243e
000003a0: d074 c8bd 2bc2 953e 48d8 4b3c 1b9e 5bbe
000003b0: 7a2f 05bf 8eec b83e 3a5b 423e 0c86 223e
000003c0: 0127 c73d e5e1 1f3e 60a0 3cbd f376 ff3e
000003d0: 6bb3 3b3e e783 a03e 89ec ab3e 00e4 cbbd
000003e0: ae5f 86be 8f4d 293e 9357 2bbd 0d7a 393e
000003f0: 9658 813e 9a41 f3bd 0dff 173e dac6 0abe

hal_net_8/sequential_22/gru_14/gru_cell_14/MatMul_1 f4 [30, 10]
0.023728848 0.114869356 -0.17180598 0.034239084 -0.19961101 -0.5600627 0.0102861915 -0.29629123
0.1157326 -0.21799046 0.14878534 -0.1384812 0.43347266 -0.28008103 0.16458265 0.031914845
-0.11029092 0.13818887 0.22188988 -0.07957822 -0.07240851 -0.0982844 -0.07691412 -0.07843794
-0.3845965 0.19336879 0.19768897 -0.17799659 0.13232869 0.012167488 0.014599273 0.10656869
0.20732465 -0.16896823 -0.09835161 -0.20358613 0.34624916 0.25201663 -0.24652952 -0.07502897
0.03414219 -0.017381046 0.03343023 -0.30824178 -0.30689225 0.08353685 0.15886399 -0.068898596
0.008401096 -0.108851895 0.10086669 -0.11311723 -0.05881835 -0.4281623 0.09021952 -0.051843442
0.045384083 -0.15676165 -0.14080977 0.029443312 0.10575185 0.086721055 -0.16165106 -0.05327809
0.028860407 -0.12045672 -0.12969922 -0.25478482 -0.111351185 0.15461324 0.042709447 0.029267209
0.12644313 -0.013081265 -0.15549423 0.053293403 -0.37422648 -0.08257297 0.080271624 0.2522322
-0.055022676 0.44232044 0.38043407 0.038525205 0.00015033316 0.17307214 0.11229763 -0.22321694
0.12515078 -0.21646199 0.30346137 -0.058531992 0.14922456 -0.04596749 0.055591542 -0.14056247
0.0073744617 0.09828449 0.26397076 -0.26791805 0.052808557 0.28126583 -0.15752989 -0.21077335
0.07455063 0.0055798236 -0.09934278 -0.057181995 0.30948 0.08919601 0.101259276 -0.113318026
0.25382948 0.20991074 -0.00998769 -0.31943303 0.35277507 0.115847446 0.24327071 0.29730868
0.040336497 0.37235048 0.17501205 -0.013588559 0.042392053 0.07469942 -0.13760744 -0.016588401
-0.253156 0.040866684 -0.09554716 -0.30616778 -0.08285644 0.063837014 0.04145755 0.058660194
0.072295904 -0.09818945 0.017246641 0.23899984 -0.054565188 -0.053977296 0.003527091 -0.027417278
0.08599453 0.15583943 0.2632727 -0.28437698 0.10067832 0.08317965 -0.10182137 0.102623135
-0.027740158 -0.020174263 -0.10587934 0.009813692 -0.22460695 -0.2756159 0.21287651 -0.2091122
-0.08329227 0.12488732 -0.2621649 -0.12484933 0.036423936 -0.13682942 0.13937904 0.2621546
-0.0777835 -0.16837662 -0.09098238 -0.33396977 0.046688218 0.030920025 0.42641884 0.027607385
-0.060653485 -0.007948725 0.22740984 -0.23709835 0.121063836 0.01413563 -0.12199607 0.0136176385
0.14478269 -0.30757058 -0.2641086 0.18521217 -0.041180987 0.07193294 0.48772788 0.0087341
0.11962623 0.036825612 -0.14584623 -0.14199877 -0.1733132 -0.0468146 0.0684132 -0.107722744
0.057527464 0.0029439067 -0.41013515 -0.17901522 0.038685203 0.0124502 0.17909102 0.10523224
0.13480358 -0.27698916 0.073409654 0.2705021 -0.11142701 -0.35542032 0.32380193 0.06615848
0.19452766 -0.019331353 0.3318815 0.35333443 0.22257552 0.16135232 -0.2740269 0.48361152
0.15686712 0.2270242 0.04333911 0.034151748 0.20644674 -0.11085302 0.01600017 -0.31247678
0.070814274 -0.03845637 0.056896687 -0.041045174 0.059016176 -0.3694989 -0.044276346 -0.2588082
-0.12106722 0.007141156 0.04465218 0.06495505 -0.05325509 -0.15487649 0.027260581 -0.14471091
0.12794031 0.19657497 0.38442367 -0.05989922 -0.09127144 0.010394222 -0.34487072 0.34639877
00000000: 0063 c23c a040 eb3d e8ed 2fbe 483e 0c3d
00000010: d466 4cbe 4560 0fbf 6a87 283c 7cb3 97be
00000020: 3705 ed3d e438 5fbe 2f5b 183e 04ce 0dbe
00000030: 21f0 dd3e c866 8fbe 5b88 283e 24b9 023d
00000040: 35e0 e1bd 6281 0d3e 1a37 633e e8f9 a2bd
00000050: ea4a 94bd 5549 c9bd 2685 9dbd 12a4 a0bd
00000060: d5e9 c4be 7802 463e fa6e 4a3e bd44 36be
00000070: 2c81 073e 255a 473c ca31 6f3c af40 da3d
00000080: ea4c 543e 0206 2dbe 926c c9bd e278 50be
00000090: 9247 b13e 5308 813e 3c72 7cbe caa8 99bd
000000a0: aed8 0b3d b262 8ebc 23ee 083d ded1 9dbe
000000b0: fb20 9dbe 5e15 ab3d 3ead 223e b51a 8dbd
000000c0: c0a4 093c beed debd 3293 ce3d 02aa e7bd
000000d0: 83eb 70bd 1738 dbbe 03c5 b83d ca59 54bd
000000e0: a9e4 393d 2086 20be 7030 10be 1a33 f13c
000000f0: 6d94 d83d cf9a b13d db87 25be 203a 5abd
00000100: a96c ec3c 03b2 f6bd dfcf 04be 2873 82be
00000110: 170c e4bd ef52 1e3e 1af0 2e3d c9c1 ef3c
00000120: 4f7a 013e cd52 56bc e139 1fbe 2f4a 5a3d
00000130: 9d9a bfbe 041c a9bd 7365 a43d 9424 813e
00000140: 755f 61bd d377 e23e 41c8 c23e 9bcc 1d3d
00000150: c0a2 1d39 d339 313e 4dfc e53d fb92 64be
00000160: 8727 003e 36a8 5dbe 4a5f 9b3e 3ebf 6fbd
00000170: 53ce 183e 6848 3cbd f5b3 633d 9cef 0fbe
00000180: 78a5 f13b 6149 c93d 2d27 873e 8e2c 89be
00000190: c94d 583d 1302 903e 844f 21be f8d4 57be
000001a0: 00ae 983d f4d6 b63b 3a74 cbbd ab37 6abd
000001b0: 2a74 9e3e 66ac b63d 0661 cf3d 4813 e8bd
000001c0: f0f5 813e d7f2 563e 68a3 23bc ba8c a3be
000001d0: ef9e b43e 6d41 ed3d f51b 793e d838 983e
000001e0: e237 253d b9a4 be3e 5c36 333e 8ca2 5ebc
000001f0: 4aa3 2d3d 02fc 983d f7e8 0cbe 66e4 87bc
00000200: aa9d 81be d363 273d 3bae c3bd 06c2 9cbe
00000210: a3b0 a9bd fbbc 823d 64cf 293d ac45 703d
00000220: e00f 943d 8d17 c9bd d448 8d3c 60bc 743e
00000230: bf7f 5fbd 4c17 5dbd c426 673b 339a e0bc
00000240: e61d b03d 5f94 1f3e aecb 863e dc99 91be
00000250: 6f30 ce3d 185a aa3d b987 d0bd 142c d23d
00000260: 543f e3bc 7f44 a5bc 44d7 d8bd 9cc9 203c
00000270: 5dff 65be 871d 8dbe 4dfc 593e 8221 56be
00000280: 2395 aabd ecc4 ff3d 7a3a 86be 01b1 ffbd
00000290: 4431 153d 031d 0cbe 61b9 0e3e 2139 863e
000002a0: f54c 9fbd ec6a 2cbe f854 babd 16fe aabe
000002b0: 253c 3f3d fe4b fd3c 9253 da3e e228 e23c
000002c0: ca6f 78bd 5e3b 02bc 20de 683e e9c9 72be
000002d0: 51f0 f73d 2199 673c 13d9 f9bd 841c 5f3c
000002e0: ea41 143e e479 9dbe 3e39 87be 42a8 3d3e
000002f0: 65ad 28bd 9451 933d 78b7 f93e 7819 0f3c
00000300: 99fe f43d 74d6 163d b758 15be 2068 11be
00000310: 0479 31be aac0 3fbd 381c 8c3d be9d dcbd
00000320: eba1 6b3d 8fee 403b 3cfd d1be c44f 37be
00000330: 6074 1e3d ecfb 4b3c a363 373e 0084 d73d
00000340: f309 0a3e 86d1 8dbe cd57 963d 407f 8a3e
00000350: d833 e4bd a7f9 b5be 5ec9 a53e 197e 873d
00000360: 4232 473e c95c 9ebc 5fec a93e 40e8 b43e
00000370: d6ea 633e 8b39 253e 414d 8cbe ee9b f73e
00000380: c6a1 203e 0879 683e 5a84 313d b4e2 0b3d
00000390: c666 533e e806 e3bd ca12 833c f5fc 9fbe
000003a0: 1307 913d 6d84 1dbd 800c 693d fc1e 28bd
000003b0: f2ba 713d f62e bdbe 1d5b 35bd 8282 84be
000003c0: 17f2 f7bd 5c00 ea3b 34e5 363d 2707 853d
000003d0: 0222 5abd f197 1ebe 9551 df3c 192f 14be
000003e0: c902 033e f34a 493e 2ed3 c43e e258 75bd
000003f0: 85ec babd 874c 2a3c e592 b0be 2e5b b13e

hal_net_8/sequential_22/gru_14/gru_cell_14/MatMul f4 [30, 480]
0.04804115 0.034416568 -0.07158461 0.023198461 0.100783974 -0.02782193 -0.022984825 0.09847055
-0.42873126 -0.08074333 -0.17101113 -0.24943964 0.1766424 0.051332925 0.42445204 -0.21139683
-0.25023684 0.32196307 0.046083335 0.050945956 -0.047194164 -0.21665967 0.111520305 0.10552962
-0.10928991 0.1186863 0.22295426 0.09029178 -0.13469167 -0.017687665 0.068553336 -0.11247192
0.23020925 -0.040224172 0.21494153 -0.06704381 0.14478421 0.08423284 -0.03972032 0.029239751
0.18021144 -0.09836803 -0.31619564 -0.22199735 0.20761065 0.03520109 -0.24168426 -0.166625
0.0873083 0.28670642 0.083528616 0.13390705 -0.070424125 -0.16263792 0.13052225 0.38998106
0.09428042 0.085293934 -0.22179529 0.16095221 -0.08273725 0.056225117 -0.057064604 0.017336553
0.08688486 0.010752049 0.20070602 0.1828474 0.037135378 0.20864587 -0.019038795 -0.13544098
0.17653961 0.0696432 -0.1318203 0.13684869 0.4398373 0.025562046 -0.21085048 0.012348238
-0.2187181 0.3473135 0.33178383 -0.018902117 0.047512148 -0.14613575 0.02682459 0.49807554
0.34877717 -0.04248428 -0.14917979 -0.021894727 0.09504428 -0.06312499 -0.07792099 -0.07689853
-0.06152185 0.19518642 0.13385291 0.049041614 0.08705194 0.19728242 0.07203648 -0.12732898
0.15204534 -0.023998795 -0.17489317 0.02159919 0.48026794 0.20908183 -0.1340948 0.24764924
0.016892193 0.20243463 0.19569828 -0.008006629 -0.007198031 -0.13149105 0.10352597 0.5134729
0.12867783 -0.02720625 -0.09994479 0.13872968 0.13604786 -0.0070162034 0.10442117 0.044870514
0.1984704 0.05417117 0.11321189 -0.06269529 0.089497216 0.22467417 0.015545559 -0.26793876
0.1713638 0.026985059 -0.065429494 -0.017241398 0.4405219 -0.074416585 -0.18664156 0.20644382
-0.0052111913 0.023348844 0.14561473 -0.20319882 1.7479128e-05 -0.14567618 0.27602172 0.4203712
0.09401974 0.075608045 0.009171587 0.051673423 0.10959254 0.06291441 -0.04231041 -0.054559134
0.2554217 0.16393036 -0.19896351 -0.14116202 0.06648336 0.24090502 0.16363718 -0.22377777
-0.33455956 0.3029484 -0.14690916 0.23796217 0.2963869 0.084434144 -0.048004944 0.08236702
-0.020965092 0.117053285 0.3042546 0.06395459 -0.21370725 0.18121184 0.040407695 0.28966996
-0.10812255 -0.10042995 0.15669043 -0.005554171 0.06008935 0.04557994 0.00622571 -0.028838461
0.3606979 0.02347718 0.066781275 -0.0034165673 0.23013514 0.17043439 0.1801969 -0.1020263
-0.09064429 0.07695044 0.2598785 -0.14991878 0.07529367 0.14535938 0.040079586 -0.079411514
-0.28014868 0.24684633 0.46656525 0.14027986 0.09979163 -0.19128472 0.15709543 0.1585721
0.17496847 0.1072455 0.021502743 0.16441564 -0.040753826 0.1036551 0.19673716 0.28827462
0.39122427 0.2716701 -0.016993865 -0.09018925 0.16223004 0.18558604 0.18598904 -0.0031129557
-0.24183278 -0.17777541 -0.09287751 -0.2464106 0.09107455 0.012611224 -0.14998774 -0.20404431
-0.047998566 0.22583127 0.20558232 -0.033605687 0.081219904 0.013918314 0.30216742 0.014438156
0.20551148 0.092233874 0.015579638 -0.011236719 -0.10449763 0.07155992 0.2886809 -0.10207618
00000000: ccc6 443d 63f8 0c3d f49a 92bd b30a be3c
00000010: d467 ce3d d1ea e3bc ac4a bcbc edaa c93d
00000020: aa82 dbbe c25c a5bd 8b1d 2fbe 1b6d 7fbe
00000030: bfe1 343e 7942 523d c751 d93e 6978 58be
00000040: 0b1f 80be 58d8 a43e e1c1 3c3d b5ac 503d
00000050: ab4e 41bd 08dc 5dbe c264 e43d ea1f d83d
00000060: 63d3 dfbd ce11 f33d 1f4e 643e e6ea b83d
00000070: 9dec 09be b9e5 90bc b165 8c3d ae57 e6bd
00000080: f9bb 6b3e 1ac2 24bd a219 5c3e 444e 89bd
00000090: 5042 143e 4482 ac3d c6b1 22bd 3488 ef3c
000000a0: 5989 383e 2d75 c9bd 65e4 a1be 4653 63be
000000b0: e397 543e 052f 103d 147c 77be be9f 2abe
000000c0: b2ce b23d 2fcb 923e 0d11 ab3d ee1e 093e
000000d0: 863a 90bd 8e8a 26be a0a7 053e 99ab c73e
000000e0: 1816 c13d 96ae ae3d 4e1e 63be a8d0 243e
000000f0: 2672 a9bd 4f4c 663d 93bc 69bd 6305 8e3c
00000100: b1f0 b13d 5d29 303c e185 4d3e 593c 3b3e
00000110: 441b 183d 43a7 553e 3ff7 9bbc 0ab1 0abe
00000120: cdc6 343e 18a1 8e3d e7fb 06be 1022 0c3e
00000130: 5b32 e13e 7f67 d13c 30e9 57be 4450 4a3c
00000140: a3f7 5fbe 13d3 b13e 92df a93e 9dd8 9abc
00000150: 199c 423d 9ca4 15be 3ebf db3c c203 ff3e
00000160: ec92 b23e ff03 2ebd 96c2 18be 925c b3bc
00000170: 93a6 c23d ad47 81bd 0a95 9fbd fa7c 9dbd
00000180: 56fe 7bbd f3de 473e bd10 093e dcdf 483d
00000190: 4a48 b23d 6704 4a3e dd87 933d 8762 02be
000001a0: c6b1 1b3e 1f99 c4bc 3217 33be c9f0 b03c
000001b0: aee5 f53e 8c19 563e 2650 09be c397 7d3e
000001c0: 7f61 8a3c 064b 4f3e 2165 483e 3c2e 03bc
000001d0: 76dd ebbb 97a5 06be 6c05 d43d f672 033f
000001e0: 1fc4 033e a4df debc dbaf ccbd 270f 0e3e
000001f0: 2150 0b3e 2ee8 e5bb c4da d53d 25ca 373d
00000200: d33b 4b3e 97e2 5d3d a3db e73d 6366 80bd
00000210: 514a b73d fc10 663e cdb2 7e3c 452f 89be
00000220: fe79 2f3e c50f dd3c e6ff 85bd d53d 8dbc
00000230: 168c e13e b967 98bd f71e 3fbe 0266 533e
00000240: a4c2 aabb 1346 bf3c 071c 153e 5a13 50be
00000250: 24a0 9237 232c 15be b852 8d3e e53a d73e
00000260: 6c8d c03d 64d8 9a3d 6d44 163c 83a7 533d
00000270: 0e72 e03d 45d9 803d ae4d 2dbd 6679 5fbd
00000280: a2c6 823e 5cdd 273e 17bd 4bbe c78c 10be
00000290: 6e28 883d ceaf 763e 8190 273e 0026 65be
000002a0: 644b abbe 0d1c 9b3e 5b6f 16be 5bac 733e
000002b0: 06c0 973e cfeb ac3d d5a0 44bd 0ab0 a83d
000002c0: fcbe abbc a2b9 ef3d 42c7 9b3e a0fa 823d
000002d0: 13d6 5abe 998f 393e 8a82 253d 9f4f 943e
000002e0: 5b6f ddbd 38ae cdbd 7573 203e c3ff b5bb
000002f0: 4020 763d 08b2 3a3d 0a01 cc3b a33e ecbc
00000300: 65ad b83e 3753 c03c 9fc4 883d 7de8 5fbb
00000310: 8ca8 6b3e 5a86 2e3e 8985 383e 2af3 d0bd
00000320: b7a3 b9bd 3198 9d3d cb0e 853e 4f84 19be
00000330: 9133 9a3d 17d9 143e 7e2a 243d 81a2 a2bd
00000340: a66f 8fbe 49c5 7c3e a4e1 ee3e 86a5 0f3e
00000350: 8e5f cc3d 24e0 43be a0dd 203e b960 223e
00000360: ef2a 333e 87a3 db3d 8526 b03c 935c 283e
00000370: 7ced 26bd 2049 d43d 7775 493e bb98 933e
00000380: 8c4e c83e 5818 8b3e b836 8bbc 24b5 b8bd
00000390: a21f 263e 440a 3e3e e973 3e3e bb02 4cbb
000003a0: 03a3 77be c20a 36be 9036 bebd 0f53 7cbe
000003b0: 4b85 ba3d 4f9f 4e3c 6396 19be fef0 50be
000003c0: 259a 44bd 5040 673e 2c84 523e 1ea6 09bd
000003d0: 9f56 a63d a409 643c b0b5 9a3e 048e 6c3c
000003e0: 9a71 523e 1de5 bc3d bd41 7f3c 371a 38bc
000003f0: da02 d6bd 028e 923d fccd 933e 510d d1bd
